PDH_ML/AutogluonModels/ag-20230313_130610/models/NeuralNetFastAI_BAG_L1/S1F5/model-internals.pkl (torch, 169315 bytes, 15 tensors)

weight f4 [50]
0	0x3f842f5e	1.0326955
1	0x3f813a98	1.0096006
2	0x3f824e58	1.0180159
3	0x3f81a898	1.0129576
4	0x3f824005	1.0175787
5	0x3f899877	1.0749654
6	0x3f7c2869	0.9849916
7	0x3f95a3b3	1.1690582
8	0x3f77d02d	0.96802026
9	0x3f8c46b3	1.0959076
10	0x3f735a16	0.95059335
11	0x3f7abdd6	0.97945917
12	0x3f87b3d6	1.0601757
13	0x3f722afb	0.94596833
14	0x3f886483	1.0655674
15	0x3f7cdd66	0.9877533
16	0x3f7e999e	0.9945315
17	0x3f76face	0.9647645
18	0x3f62344e	0.8836106
19	0x3f63e2ac	0.8901775
20	0x3f7c4554	0.98543286
21	0x3f7f0724	0.9962027
22	0x3f70986e	0.9398259
23	0x3f605fc4	0.87646127
24	0x3f62e54a	0.8863112
25	0x3f722970	0.9459448
26	0x3f752a91	0.95768076
27	0x3f72a666	0.94785154
28	0x3f701eec	0.93797183
29	0x3f5c90b3	0.86158293
30	0x3f718739	0.9434696
31	0x3f791856	0.9730276
32	0x3f6ebd04	0.93257165
33	0x3f83aca3	1.028706
34	0x3f7b5bb6	0.98186815
35	0x3f81fe4c	1.015573
36	0x3f8bfa64	1.0935788
37	0x3f61e5a9	0.8824106
38	0x3f7acee9	0.9797197
39	0x3f71643e	0.9429358
40	0x3f8315a6	1.0240982
41	0x3f81b368	1.0132875
42	0x3f73e85c	0.9527643
43	0x3f73d62d	0.9524868
44	0x3f836902	1.0266421
45	0x3f8ef962	1.1169856
46	0x3f789bb1	0.97112566
47	0x3f6c30d8	0.9226203
48	0x3f8066a5	1.0031325
49	0x3f974316	1.1817348

bias f4 [50]
0	0x3b800936	0.003907348
1	0x3c918e37	0.017768009
2	0x3d30aa82	0.04313136
3	0xbd1cc89d	-0.038277257
4	0x3d898e88	0.06716639
5	0x3d783448	0.060596734
6	0x3c21c84d	0.009874416
7	0x3ca6cc24	0.020361014
8	0x3cfb0a6e	0.030644622
9	0x3c4112ee	0.011784298
10	0x3b6a947f	0.0035794077
11	0x3d287608	0.04112819
12	0x3d384df3	0.044996213
13	0x3dbcd412	0.09220137
14	0x3dd304a6	0.10303621
15	0x3b983001	0.0046443944
16	0xbb564b2a	-0.003269861
17	0xba6a8cae	-0.00089473545
18	0x3d392fa7	0.04521146
19	0x3d185795	0.0371929
20	0xbc8d2d83	-0.017233616
21	0x3ba608b5	0.005066956
22	0xbc8de96f	-0.017323224
23	0x3ca4e151	0.02012697
24	0x3cddf460	0.027094066
25	0x3d1ffa3d	0.039057005
26	0x3cc3be82	0.023894552
27	0x3c0779c7	0.00826878
28	0xbd2f4e9d	-0.04279958
29	0x3d22f835	0.03978749
30	0xbaefd3fe	-0.0018297432
31	0xbd05bcbd	-0.032650698
32	0xbd10fb2a	-0.03539578
33	0xbd082b6d	-0.03324454
34	0x3bea405b	0.007148785
35	0x3b018887	0.0019765215
36	0x3c7ef8ce	0.015562249
37	0xbd22a136	-0.039704524
38	0x3cccde49	0.025008338
39	0xbd296270	-0.041353643
40	0xbd6da81a	-0.058021642
41	0x3c6e3438	0.014538817
42	0x3a951d7d	0.0011376586
43	0x3cc6fa0e	0.024289157
44	0x3ccf0e64	0.025275417
45	0x3c056963	0.008142802
46	0x3d54d81d	0.051963914
47	0x3d112266	0.035433196
48	0xbd721804	-0.059104934
49	0xbc9d6752	-0.019214306

running_mean f4 [50]
0	0x3beb4d2f	0.007180832
1	0x3b08827e	0.0020829733
2	0xbc872ba0	-0.016500294
3	0xbc55f221	-0.013058216
4	0xba2e1b45	-0.0006641637
5	0x3b26a86b	0.0025429975
6	0x3c20aa29	0.009806194
7	0x3c1f1115	0.0097086625
8	0x3bcb483e	0.0062036803
9	0x3cbc6bed	0.023000682
10	0x3ae415fc	0.0017401571
11	0x3c0020a6	0.007820284
12	0xbb9ce378	-0.0047878586
13	0x3c775788	0.015096553
14	0x3c49573c	0.012288865
15	0x3af62faf	0.0018782521
16	0x3c3af074	0.011409868
17	0x3bdd4734	0.006752873
18	0x3b419256	0.0029536686
19	0xbc00252c	-0.007821362
20	0xbce4765e	-0.027888473
21	0x3bad2b56	0.005284707
22	0xbccc201f	-0.02491766
23	0xbcfce8c5	-0.030872712
24	0xbba32f06	-0.004979971
25	0x3b021c54	0.001985331
26	0x3b8c0c00	0.0042738914
27	0xbae28563	-0.0017282184
28	0x3b2adafa	0.0026070462
29	0xbcfe7ee7	-0.031066371
30	0xbc9c0db4	-0.019049503
31	0x3bc0f056	0.0058880253
32	0x3c058781	0.008149982
33	0x382d479a	4.13131e-05
34	0x3b4ffeac	0.003173749
35	0xbc0a3cbb	-0.008437331
36	0xbd388c1a	-0.045055486
37	0x3b34fbc5	0.0027615887
38	0x3b92baea	0.0044778483
39	0x3c4d23b2	0.012520717
40	0xbba89ec1	-0.005145878
41	0x3bf5f9a9	0.0075065685
42	0x3c0345eb	0.008012275
43	0x3ccc8cd8	0.024969503
44	0x3c3c79a3	0.01150361
45	0xbc861de1	-0.01637167
46	0x3b8fe1b3	0.004390919
47	0xbc5286ca	-0.012849519
48	0x3be5239b	0.00699277
49	0xbce5165d	-0.027964765

running_var f4 [50]
0	0x3f825cf3	1.0184616
1	0x3f7dfece	0.99216926
2	0x3f568d1b	0.8380906
3	0x3f708307	0.9394993
4	0x3f885b80	1.0652924
5	0x3f82e757	1.0226849
6	0x3f8baea7	1.0912675
7	0x3f835b6a	1.0262272
8	0x3f8b6d6d	1.0892769
9	0x3f85f34a	1.0464871
10	0x3f82f256	1.0230205
11	0x3f873d7e	1.0565641
12	0x3f80d28c	1.0064254
13	0x3f8afa5d	1.0857655
14	0x3f8c5d5b	1.096599
15	0x3f8377a3	1.0270885
16	0x3f89ba96	1.0760067
17	0x3f845c73	1.0340713
18	0x3f8359f9	1.0261832
19	0x3f7a28fc	0.9771879
20	0x3f19088f	0.59778684
21	0x3f877f05	1.0585638
22	0x3f24007d	0.64063245
23	0x3f0e03ed	0.5547474
24	0x3f6d9d13	0.928178
25	0x3f83aa3f	1.028633
26	0x3f862504	1.0480046
27	0x3f799e88	0.97507524
28	0x3f84d00f	1.0375994
29	0x3f0d4ce5	0.55195457
30	0x3f4c298b	0.7975089
31	0x3f82ecc9	1.0228511
32	0x3f872027	1.0556687
33	0x3f7faff6	0.9987787
34	0x3f85dbe0	1.0457726
35	0x3f746f31	0.95482165
36	0x3eb34d7c	0.35020053
37	0x3f826f86	1.0190284
38	0x3f860f99	1.047351
39	0x3f7d7c99	0.99018246
40	0x3f6d0041	0.9257851
41	0x3f8ddb82	1.1082613
42	0x3f87060c	1.054872
43	0x3f872909	1.0559398
44	0x3f8519d0	1.0398502
45	0x3f6d339c	0.92656875
46	0x3f80aeed	1.0053383
47	0x3f76405d	0.9619196
48	0x3f7e2b2b	0.9928462
49	0x3f627f5b	0.8847558

weight f4 [200, 50]
0	0xbce33507	-0.027735246
1	0x3d2d0cf2	0.042248674
2	0xbdd1f998	-0.10252684
3	0xbd1e4fc1	-0.038650278
4	0xbde94d28	-0.113916695
5	0x3d1b1e14	0.03787048
6	0xbc755b63	-0.014975402
7	0x3ded2adb	0.1158044
8	0xbcf7b990	-0.03023985
9	0x3d0109cf	0.031503495
10	0xbce3d0bf	-0.027809499
11	0x3c0f087a	0.008730048
12	0xbdc7fa83	-0.09764578
13	0xbd9831e3	-0.0743139
14	0xbdf059e2	-0.11735894
15	0xbbb2bd22	-0.0054546753
16	0x3d9a2092	0.075257435
17	0x3e17392f	0.14767908
18	0xbde6e521	-0.112741716
19	0x3b8fb253	0.0043852716
20	0x3d2193fa	0.039447762
21	0x3d97d19f	0.07413029
22	0xbb4470bf	-0.0029974428
23	0x3d80acc5	0.06282953
24	0xbc35e10a	-0.011101017
25	0xbc012323	-0.007881912
26	0x3e49af5f	0.19695805
27	0xbdda0a36	-0.10646479
28	0xbdf9a315	-0.121893086
29	0x3bb4a3cc	0.00551269
30	0xbdef8986	-0.116961524
31	0x3e089aa7	0.13340245
32	0xbde298ce	-0.110643014
33	0xbda6bfe7	-0.08142071
34	0xbcc6afeb	-0.024253806
35	0xbe14c69c	-0.14528888
36	0xbd9a6b66	-0.07540016
37	0x3da2dedc	0.07952663
38	0x3d9923a8	0.07477504
39	0x3d273c89	0.040829215
40	0xbcc740a8	-0.024322823
41	0xbe1eace4	-0.1549564
42	0x3d7cc714	0.061713293
43	0xbde50423	-0.1118243
44	0xbe0db84e	-0.13839838
45	0xbe099b19	-0.13438071
46	0x3d9507fc	0.072769135
47	0x3e06e211	0.13172175
48	0xbd860e45	-0.065456904
49	0xbdafd5b7	-0.08585685
50	0x3dd57548	0.1042276
51	0x3e240db9	0.1602086
52	0x3db643d5	0.08899657
53	0x3bd723dc	0.006565554
54	0x3ddbfae9	0.10741217
55	0xbd4616f2	-0.048361726
56	0x3e08e9a7	0.13370381
57	0xbe056206	-0.13025674
58	0xbd3e6d1b	-0.04649077
59	0xbdca6c81	-0.09883977
60	0x3e0cf44e	0.1376507
61	0x3c61cc5d	0.013781634
62	0xbd4d896c	-0.050179884
63	0x3d0e4e39	0.034742568
64	0x3d5a63dc	0.05331789
65	0xbc7f83bd	-0.015595374
66	0x3cb0c894	0.021580018
67	0x3d434667	0.047674563
68	0x3d482c23	0.048870217
69	0x3df0b034	0.11752358
70	0xbd4ef435	-0.050525863
71	0xbdab6197	-0.08368223
72	0x3dbf540b	0.09342202
73	0x3d84aec8	0.064786494
74	0x3e121eb1	0.1426952
75	0x3d72cc1a	0.059276678
76	0x3bbb57f8	0.005717274
77	0xbe03aab3	-0.12858085
78	0xbb8f60e6	-0.004375565
79	0x3d22a388	0.039706737
80	0xbdcca028	-0.09991485
81	0x3df7f895	0.1210796
82	0x3db35efe	0.08758353
83	0xbe4d23af	-0.20033143
84	0x3c76c4b9	0.015061551
85	0xbdbfb0bf	-0.093598835
86	0xbd1561a8	-0.036470085
87	0xbdf2479e	-0.11830066
88	0x3d93d83e	0.07218979
89	0xbd45cded	-0.04829209
90	0xbaba479c	-0.0014212015
91	0x3d20b8d9	0.039238784
92	0x3dc948dd	0.09828351
93	0x3d97ced5	0.07412497
94	0xbe3705eb	-0.17873351
95	0xbd3fd7a3	-0.046836507
96	0x3cf4ec24	0.029897757
97	0x3b1f65d2	0.0024322164
98	0xbdfcddba	-0.123469785
99	0xbe674b62	-0.2258735
100	0x3e4083c4	0.18800265
101	0x3d8a4393	0.0675117
102	0xbdba30fa	-0.09091373
103	0xbd552ca2	-0.05204452
104	0xbd92456f	-0.0714215
105	0x3cc5a148	0.024124756
106	0xbd1da48d	-0.038487006
107	0xbda821ae	-0.08209549
108	0xbcb9be76	-0.022673827
109	0x3b6fc966	0.0036588549
110	0xbd3a22c8	-0.045443326
111	0x3d633814	0.055473402
112	0xbdaf78ab	-0.085679375
113	0x3e03fbe1	0.12889053
114	0x3de37be6	0.11107616
115	0xbe0c3b9b	-0.13694613
116	0xbcfa5250	-0.030556828
117	0x3d19e54e	0.037572198
118	0x3d3bc0c9	0.04583815
119	0x3c98c273	0.018647408
120	0x3ccba811	0.024860414
121	0x3c264203	0.010147574
122	0xbd7f6d57	-0.062360134
123	0x3df9e8a8	0.12202579
124	0xbd0b1bb4	-0.033961967
125	0xbd1fa374	-0.03897424
126	0xbd4fc621	-0.05072606
127	0xbd94a8af	-0.07258736
128	0xbd78b7c0	-0.060722113
129	0xbd99c436	-0.075081274
130	0x3ae00d44	0.0017093797
131	0x3d8cf25e	0.06882165
132	0xbdc5418a	-0.09631641
133	0xbd357abd	-0.044306505
134	0x3daab28f	0.083348386
135	0x3d7d0c27	0.061779168
136	0x3cb2e466	0.021837424
137	0xbdfc10b2	-0.12307872
138	0xbd828b65	-0.06374244
139	0x3dc274fa	0.09494968
140	0x3e16c92e	0.14725181
141	0x3d711c4a	0.05886487
142	0x3dbbfc11	0.09178937
143	0xbc17edde	-0.009273021
144	0xbe3df683	-0.18551068
145	0xbd568eb5	-0.05238219
146	0x3ddf4bd3	0.10903134
147	0xbc105f32	-0.008811759
148	0xbdbd9f4b	-0.09258898
149	0xbe5dfc95	-0.21678384
150	0xbe618c7b	-0.22026245
151	0xbdf9cce7	-0.12197285
152	0x3da145d5	0.078746475
153	0x3d502eb6	0.050825797
154	0x3da5e656	0.08100574
155	0xbdf5c71d	-0.120008685
156	0x3d475e4d	0.048673917
157	0xbe6402bc	-0.22266668
158	0xbe091875	-0.13388236
159	0xbd86729b	-0.06564828
160	0xbd1041eb	-0.035219114
161	0xbd3b33f7	-0.045703854
162	0xbe6a28f3	-0.22867183
163	0xbdf9f6e8	-0.12205297
164	0x3b5eb835	0.0033984308
165	0x3d22f0df	0.039780494
166	0xbd6baead	-0.05753963
167	0xbbdd1214	-0.00674654
168	0xbd0ec3b8	-0.03485462
169	0x3c6e6171	0.014549599
170	0x3e1a5448	0.15071213
171	0xbdd084f8	-0.10181612
172	0x3e135f3f	0.14391802
173	0xbdabf7ef	-0.08396899
174	0xbe06a19e	-0.1314759
175	0x3d8ed7e0	0.06974769
176	0xbca4bbaa	-0.020109016
177	0xbcca2d40	-0.02467978
178	0x3c3cf488	0.01153291
179	0xbdb1dad5	-0.08684317
180	0x3c3246f9	0.010881179
181	0xbcb2650a	-0.021776695
182	0x3de4af0e	0.111662015
183	0x3cb65078	0.022255167
184	0x3dd0b89e	0.10191463
185	0x3d204627	0.039129402
186	0xbc9f1b2a	-0.019422133
187	0xbd3abbe1	-0.04558933
188	0xbe31b659	-0.17354716
189	0x3da80c42	0.08205463
190	0x3e2535de	0.1613383
191	0x3e34e3c5	0.17665012
192	0xbce72aea	-0.028218705
193	0xbc35d7d4	-0.011098821
194	0xbc52e7e8	-0.012872674
195	0xbd6e0a16	-0.058115087
196	0x3bdf4e55	0.006814758
197	0x3d5f936f	0.054583963
198	0xbdf31554	-0.118693024
199	0x3db2de66	0.087338254
200	0xbd82125f	-0.0635116
201	0x3dbdc4ef	0.09266078
202	0xbdef354d	-0.11680088
203	0xbde07ffe	-0.109619126
204	0xbdae8df7	-0.085231714
205	0x3daeba98	0.08531684
206	0xbd70be5e	-0.0587753
207	0x3e5bd4a3	0.21467833
208	0x3d22cd67	0.03974667
209	0x3d0d5d07	0.034512546
210	0x3dc1e01e	0.09466575
211	0x3db314c3	0.08744194
212	0x3db60b9d	0.08888934
213	0xbcbf35f2	-0.023341153
214	0xbd96f115	-0.073702015
215	0x3c9a8d8c	0.018866323
216	0xbd67be78	-0.05657813
217	0xbd5fc3c1	-0.054630045
218	0x3d801ec1	0.06255866
219	0xbd634156	-0.05548223
220	0xb9e1ee74	-0.00043093006
221	0x3dcd986a	0.10038836
222	0xba8875ed	-0.0010411121
223	0x3bf1e0c2	0.0073815295
224	0xbe0e8369	-0.13917316
225	0x3d841dbb	0.06450983
226	0xbc449800	-0.01199913
227	0xbae025ba	-0.0017101087
228	0xbd92cc2e	-0.071678504
229	0xbd037635	-0.032095153
230	0xbc26e10f	-0.010185494
231	0x3db0b21a	0.0862772
232	0x3cf0214b	0.02931275
233	0x3d1cdcbc	0.038296446
234	0x3deb5aee	0.11491953
235	0x3d97ed76	0.07418339
236	0x3dcfba2b	0.101429306
237	0xbde0b522	-0.10972048
238	0xbd90faca	-0.07079084
239	0x3d15e519	0.036595438
240	0x3d1da819	0.03849039
241	0x3dc34f9c	0.09536669
242	0x3da05fb6	0.078307554
243	0x3d5d2b13	0.053996157
244	0x3dc538c5	0.096299686
245	0xbe24a817	-0.16079746
246	0x3e0341ee	0.12818119
247	0xbd75e855	-0.060036022
248	0xbc6c6612	-0.014428632
249	0xbcb2c9e4	-0.021824785
250	0xbd981ca0	-0.07427335
251	0xbba3449f	-0.0049825455
252	0x3e1bcb72	0.15214327
253	0xbd7ac794	-0.06122549
254	0x397e88f0	0.00024274341
255	0xbdb64a58	-0.08900899

weight f4 [200]
0	0x3f797001	0.9743653
1	0x3f74856e	0.955161
2	0x3f77c930	0.9679136
3	0x3f85e61d	1.046085
4	0x3f823021	1.0170938
5	0x3f78d3e6	0.9719833
6	0x3f80e2b2	1.0069182
7	0x3f8544f9	1.0411674
8	0x3f981d24	1.1883893
9	0x3f7f3de0	0.9970379
10	0x3f72ede6	0.94894254
11	0x3f850b37	1.0394047
12	0x3f83612a	1.0264027
13	0x3f88cb63	1.0687069
14	0x3f7fe3e0	0.99957085
15	0x3f82919a	1.0200684
16	0x3f78efad	0.97240716
17	0x3f76d225	0.96414405
18	0x3f79befb	0.9755704
19	0x3f77b2e5	0.96757346
20	0x3f75031d	0.95707875
21	0x3f73f856	0.95300806
22	0x3f843330	1.0328121
23	0x3f7b7fe6	0.9824203
24	0x3f86c686	1.0529335
25	0x3f814479	1.0099021
26	0x3f7aae3e	0.9792212
27	0x3f7493ae	0.9553784
28	0x3f75fc45	0.9608806
29	0x3f862468	1.047986
30	0x3f880a70	1.0628185
31	0x3f80ab3b	1.0052255
32	0x3f7d1034	0.9885285
33	0x3f83ad2b	1.0287222
34	0x3f794527	0.97371143
35	0x3f8286b6	1.019736
36	0x3f83f5e1	1.0309411
37	0x3f82d9ac	1.0222678
38	0x3f7c927d	0.98661023
39	0x3f81ee9c	1.0150943
40	0x3f820f82	1.0160983
41	0x3f7cdd3c	0.98775077
42	0x3f7f3307	0.99687237
43	0x3f7436fc	0.953964
44	0x3f7f9e0e	0.9985055
45	0x3f812957	1.0090741
46	0x3f735648	0.9505353
47	0x3f84595f	1.0339774
48	0x3f7d738e	0.9900445
49	0x3f7da446	0.99078786
50	0x3f7370ee	0.9509419
51	0x3f851eb2	1.0399992
52	0x3f7246d0	0.946393
53	0x3f7534cd	0.9578369
54	0x3f734706	0.9503025
55	0x3f797b9f	0.97454256
56	0x3f6f5eea	0.935042
57	0x3f7ac538	0.9795718
58	0x3f7bbb08	0.9833226
59	0x3f8049a0	1.0022469
60	0x3f7ad220	0.97976875
61	0x3f74b241	0.95584494
62	0x3f7f3464	0.99689317
63	0x3f79701b	0.97436684
64	0x3f8286d0	1.0197392
65	0x3f6f14aa	0.93390906
66	0x3f80335f	1.0015677
67	0x3f7d8f97	0.99047226
68	0x3f7b397f	0.9813461
69	0x3f870bd5	1.0550486
70	0x3f77042c	0.9649074
71	0x3f7d3fcf	0.9892549
72	0x3f636d01	0.888382
73	0x3f82740a	1.0191662
74	0x3f7e5f2b	0.99363965
75	0x3f789f2b	0.9711787
76	0x3f86e648	1.0539026
77	0x3f7cba9e	0.98722255
78	0x3f7976da	0.9744698
79	0x3f88c195	1.0684077
80	0x3f85fd02	1.0467837
81	0x3f755ebf	0.95847696
82	0x3f811c05	1.0086676
83	0x3f7b49f0	0.98159695
84	0x3f74146f	0.9534368
85	0x3f803fea	1.0019505
86	0x3f81cb00	1.0140076
87	0x3f8036c0	1.0016708
88	0x3f871eee	1.0556314
89	0x3f815774	1.0104814
90	0x3f7e1c5a	0.9926201
91	0x3f80026c	1.0000739
92	0x3f854b47	1.0413598
93	0x3f6cd3f7	0.9251093
94	0x3f88c7cf	1.0685977
95	0x3f776598	0.96639395
96	0x3f7647fe	0.962036
97	0x3f80b91c	1.0056491
98	0x3f7ec2b7	0.9951586
99	0x3f80674a	1.0031521
100	0x3f7ab1e3	0.97927684
101	0x3f8240a6	1.0175979
102	0x3f7d0bc7	0.98846096
103	0x3f84d347	1.0376977
104	0x3f803e7a	1.0019066
105	0x3f7f159b	0.9964234
106	0x3f7b0695	0.9805692
107	0x3f8144a0	1.0099068
108	0x3f7823a0	0.9692936
109	0x3f7d970f	0.9905862
110	0x3f803ff2	1.0019515
111	0x3f79f442	0.9763833
112	0x3f896000	1.0732422
113	0x3f798a82	0.9747697
114	0x3f7e1867	0.99255985
115	0x3f843c78	1.0330954
116	0x3f817072	1.011244
117	0x3f7e48d8	0.993299
118	0x3f801aea	1.0008214
119	0x3f7fda7a	0.99942744
120	0x3f80ef13	1.007296
121	0x3f80a9fe	1.0051877
122	0x3f8619bd	1.0476605
123	0x3f788c60	0.97089195
124	0x3f7c939a	0.9866272
125	0x3f7e3c4f	0.99310774
126	0x3f834224	1.025456
127	0x3f830545	1.0235983
128	0x3f82cb1d	1.0218235
129	0x3f7ff4f3	0.9998314
130	0x3f7e9a24	0.9945395
131	0x3f87fa5e	1.0623281
132	0x3f862949	1.0481349
133	0x3f816cc0	1.0111313
134	0x3f7bfb10	0.98429966
135	0x3f8507e0	1.0393028
136	0x3f780761	0.9688626
137	0x3f7bf287	0.9841694
138	0x3f85a30c	1.0440383
139	0x3f82a93e	1.0207899
140	0x3f8584db	1.0431169
141	0x3f7f0c71	0.9962836
142	0x3f76cb12	0.9640361
143	0x3f7c65c3	0.98592776
144	0x3f8fb2a6	1.1226394
145	0x3f7b43d0	0.9815035
146	0x3f79d044	0.97583413
147	0x3f7dc6de	0.9913157
148	0x3f7af7dc	0.98034453
149	0x3f80cd2e	1.0062616
150	0x3f7d02c4	0.98832345
151	0x3f6e03fe	0.9297484
152	0x3f80a07a	1.0048974
153	0x3f8282ea	1.0196202
154	0x3f72a3bc	0.9478109
155	0x3f6d3791	0.9266291
156	0x3f85f78f	1.0466174
157	0x3f7a8a48	0.9786725
158	0x3f8690f4	1.0512986
159	0x3f7f4a07	0.9972233
160	0x3f8628c6	1.0481193
161	0x3f843a81	1.0330354
162	0x3f8273d9	1.0191604
163	0x3f87b327	1.0601548
164	0x3f679f36	0.9047731
165	0x3f79d1e9	0.9758592
166	0x3f7d88cb	0.99036855
167	0x3f852b73	1.0403885
168	0x3f7d8309	0.9902807
169	0x3f7ee148	0.995625
170	0x3f7bf8ce	0.9842652
171	0x3f7b21df	0.9809856
172	0x3f822081	1.016617
173	0x3f7b0d5b	0.98067254
174	0x3f814e59	1.0102035
175	0x3f81ed83	1.0150608
176	0x3f813c81	1.0096589
177	0x3f819407	1.0123299
178	0x3f72a126	0.94777143
179	0x3f79d377	0.97588295
180	0x3f7f57ed	0.9974354
181	0x3f76045f	0.9610042
182	0x3f7a8d8b	0.9787223
183	0x3f86b163	1.0522884
184	0x3f7bd0d5	0.9836553
185	0x3f83cf5d	1.0297657
186	0x3f8007ff	1.000244
187	0x3f808e3c	1.0043406
188	0x3f8289d6	1.0198314
189	0x3f827515	1.0191981
190	0x3f819328	1.0123034
191	0x3f83396c	1.0251899
192	0x3f7fb5de	0.9988688
193	0x3f812f31	1.0092527
194	0x3f78efd9	0.9724098
195	0x3f79623b	0.9741551
196	0x3f808833	1.0041565
197	0x3f6f9cd3	0.9359867
198	0x3f700a33	0.9376556
199	0x3f83255c	1.0245776

bias f4 [200]
0	0x3cc9e86e	0.024646964
1	0x3ad9e049	0.0016622628
2	0x3cd25a4c	0.025677823
3	0x3b01ff33	0.0019835948
4	0xb9bb0070	-0.00035667745
5	0x3c9096e2	0.017650072
6	0x3cc66201	0.024216654
7	0x3c926261	0.017869176
8	0xbd8c8aec	-0.06862435
9	0x3d261544	0.040547624
10	0x3d7e64b2	0.06210775
11	0x3d6bfc45	0.05761363
12	0x3d40dfe4	0.04708852
13	0x3da79af2	0.0818385
14	0x3cd65493	0.026163375
15	0x3c765b01	0.015036345
16	0x3d3ea9a8	0.046548516
17	0xbc8d0915	-0.017216245
18	0xbc155d1a	-0.009116435
19	0x3d0227f0	0.03177637
20	0x3ca96ad5	0.020680824
21	0x3d927370	0.07150924
22	0xbd4704a6	-0.048588417
23	0x3ccbb043	0.024864322
24	0x3d5a309c	0.053269014
25	0x3c8c1264	0.017098613
26	0xbb9bf8ff	-0.0047599073
27	0x3cc90e18	0.024542853
28	0x3c1acd3f	0.009448349
29	0x3d5586ff	0.052130695
30	0x3cc43edf	0.02395576
31	0x3d51e16d	0.051240373
32	0x3cbab185	0.022789726
33	0x3db3c936	0.08778612
34	0x3de64785	0.1124411
35	0x3c25baca	0.010115335
36	0xbd04f31d	-0.032458413
37	0x3da678b9	0.08128495
38	0xbd73d14f	-0.059525784
39	0x3ca9c2b0	0.020722717
40	0x3c1f3323	0.009716782
41	0x3d83f151	0.06442512
42	0x3d2a6168	0.0415968
43	0xbaf33c08	-0.0018557319
44	0x3dab6fab	0.08370908
45	0x3b997abe	0.0046838215
46	0x3c684aa1	0.014177949
47	0x3cd35e68	0.025801852
48	0x3a0e6c60	0.0005433019
49	0x3cb14f79	0.02164434
50	0x3c995b5b	0.01872032
51	0x3d99aeee	0.07504068
52	0x3d108cc1	0.035290483
53	0x3d45d6cc	0.04830055
54	0xbc2cec36	-0.010554364
55	0x3cc4b258	0.024010822
56	0xbcdcf8a3	-0.026974028
57	0x3d080c63	0.033214938
58	0x3c694289	0.014237055
59	0x3c730dc2	0.014834823
60	0xbb0f7df0	-0.0021895133
61	0x3c0ac32d	0.008469385
62	0xbc8e62f9	-0.017381178
63	0xbd04e675	-0.032446343
64	0x3d38ceb5	0.045119006
65	0x3dc2c00b	0.095092855
66	0x3ddef3c6	0.1088634
67	0x3d14544d	0.036213208
68	0x3d66941f	0.056293603
69	0x3cb75207	0.02237798
70	0x3d704f0d	0.05866914
71	0x3d28046f	0.041019853
72	0xbb9edb3d	-0.0048479126
73	0x3d286e41	0.04112077
74	0xbcb78015	-0.022399941
75	0x3c43932c	0.011936944
76	0xbd25c65a	-0.040472366
77	0xbcccee10	-0.02501586
78	0x3cab8735	0.020938495
79	0xbc7c3620	-0.015393764
80	0x3d5ff75d	0.054679263
81	0x3d171111	0.03688151
82	0x3d954a3a	0.07289548
83	0xbda45c35	-0.080253996
84	0xbcbb1b0f	-0.022840051
85	0x3db75ad8	0.08952874
86	0xbb727c9c	-0.0037000543
87	0x3dc18e70	0.09450996
88	0xbd28eace	-0.041239552
89	0x3d7961a3	0.06088413
90	0x3a26149d	0.0006335469
91	0x3c4749d4	0.012163598
92	0x3ca825d2	0.020525847
93	0x3cf6d413	0.030130422
94	0x3c69a314	0.014260072
95	0x3c92f18e	0.017937448
96	0x3cf7d9df	0.030255256
97	0x3cae8ade	0.021306451
98	0x3da2fdda	0.079585746
99	0xbd590fdf	-0.05299365
100	0x3d3b9467	0.045795824
101	0x3d9b1859	0.07573003
102	0x3c857e57	0.016295595
103	0x3dcfbd73	0.101435564
104	0x3abcc7db	0.0014402823
105	0x3d4d4284	0.050112262
106	0x3c4a028c	0.012329709
107	0x3d0c097b	0.03418873
108	0x3b9077a6	0.0044087945
109	0x3dfacaa1	0.1224568
110	0xbb706be5	-0.0036685404
111	0x3d414422	0.047184117
112	0x39a6b5bc	0.0003179739
113	0xbd5edb1a	-0.05440817
114	0x3bfb8796	0.007676075
115	0x3cd5772f	0.026057808
116	0x3d9bd57c	0.07609078
117	0x3d182703	0.03714658
118	0x3d8f39b3	0.06993427
119	0x3da452d2	0.08023609
120	0x3d4daa48	0.05021122
121	0x3d6ce3c0	0.057834387
122	0xbcf58905	-0.029972563
123	0x3cbac143	0.022797232
124	0x3b9ac09b	0.0047226674
125	0x3cc1dad1	0.02366391
126	0x3d6547d3	0.0559767
127	0xbaa2aa3c	-0.0012410353
128	0x3d6cd994	0.057824686
129	0x3d625864	0.055260077
130	0x3d1c4ff8	0.0381622
131	0xbccf46dc	-0.025302343
132	0x3d71aa39	0.059000228
133	0x3b690c9e	0.00355605
134	0x3d367904	0.044549003
135	0x3d4fedbf	0.05076384
136	0x3d08cb2c	0.033396885
137	0x3d77a47b	0.060459595
138	0xbd99dff6	-0.0751342
139	0x3d798704	0.060919777
140	0xbcaf9fc3	-0.021438485
141	0x3d903f13	0.070432805
142	0x3c68c202	0.014206411
143	0xbd710758	-0.058844894
144	0x3c0b19db	0.008490051
145	0x3cbbe8c4	0.02293814
146	0x3c257cc7	0.01010055
147	0x3d2d96db	0.042380195
148	0x3d89ef74	0.06735125
149	0x3dd5744b	0.10422572
150	0x3d134b03	0.03596021
151	0xbd57fc29	-0.052730713
152	0xbcee5a26	-0.02909572
153	0xbb14c12a	-0.0022698143
154	0x3c2028f0	0.009775385
155	0x3c35bcf6	0.011092415
156	0x3d4292fa	0.04750345
157	0x3d3f1222	0.046648152
158	0x3cb5ec53	0.022207415
159	0x3d185d65	0.037198443
160	0x3cbd4500	0.02310419
161	0xbbfe07a4	-0.0077523757
162	0x3d0c6b9a	0.034282304
163	0xbc590426	-0.013245618
164	0x3b4de37d	0.003141611
165	0xbd09b8c9	-0.03362349
166	0x3d61142f	0.05495089
167	0x3d245b53	0.040126156
168	0x3c8bab4f	0.01704946
169	0x3c83194b	0.016003272
170	0x3ae2c365	0.0017300664
171	0x3d618537	0.055058684
172	0xbd0f78b1	-0.03502721
173	0xbca5f32c	-0.020257555
174	0x3cff8fea	0.031196553
175	0x3d5b9283	0.05360652
176	0x3d15be29	0.036558304
177	0x3d9127e7	0.07087689
178	0x3cf1eccf	0.029531864
179	0x3d9296dd	0.07157681
180	0x3d0a8756	0.033820473
181	0x3cf62d49	0.03005089
182	0x3e17b001	0.14813234
183	0xbcc76eda	-0.02434485
184	0xbd169cce	-0.036770634
185	0xbcf39e9a	-0.029738713
186	0x3c2d33e1	0.010571451
187	0x3d83d598	0.06437224
188	0xbdd8be90	-0.10583222
189	0xbcc9ebf4	-0.024648644
190	0x3ce1eca7	0.027578665
191	0xbb1d9855	-0.0024047096
192	0x3da3234f	0.07965719
193	0x3d68773f	0.056754347
194	0x3cd57edc	0.026061468
195	0xbcb96470	-0.0226309
196	0xbd762c39	-0.060100768
197	0xbd841b2d	-0.06450496
198	0x3db1fe4e	0.08691083
199	0x3cc5ef0f	0.024161844

running_mean f4 [200]
0	0x3e37dcce	0.17955324
1	0x3e82146b	0.25406203
2	0x3e8321e7	0.25611803
3	0x3e1f89d5	0.15579922
4	0x3e3f1305	0.18659599
5	0x3e3a061d	0.18166395
6	0x3e2403ec	0.16017121
7	0x3e542c57	0.2072004
8	0x3e4e7b72	0.20164278
9	0x3e6b462d	0.22975989
10	0x3e3b4348	0.18287385
11	0x3e63487a	0.22195616
12	0x3e3b9690	0.18319154
13	0x3e31302f	0.17303537
14	0x3e4fc394	0.20289451
15	0x3e773b4a	0.2414371
16	0x3e14b88a	0.14523521
17	0x3e44d6ef	0.19222616
18	0x3e6b6b07	0.22990046
19	0x3e3d72bd	0.185008
20	0x3e4d98f3	0.20077877
21	0x3e172eb4	0.1476391
22	0x3e210127	0.15723096
23	0x3e4f8408	0.2026521
24	0x3e682c14	0.22673064
25	0x3e625025	0.22100885
26	0x3e3b86ee	0.1831319
27	0x3e40ae9c	0.18816608
28	0x3e4d1581	0.20027734
29	0x3e48e0dc	0.19617027
30	0x3e201f4b	0.15636937
31	0x3e1ff152	0.156194
32	0x3e1a50b0	0.15069842
33	0x3e3fbbfd	0.18724056
34	0x3e5a431d	0.21314664
35	0x3e3bc03c	0.1833505
36	0x3e4c478b	0.19949166
37	0x3e593d07	0.21214686
38	0x3e32837d	0.17432971
39	0x3e2d8cab	0.16948192
40	0x3e8875cc	0.26652372
41	0x3e318845	0.17337139
42	0x3e6292a1	0.22126247
43	0x3e3d795e	0.18503329
44	0x3e447598	0.19185483
45	0x3e3dbe84	0.18529707
46	0x3e30d5d5	0.1726907
47	0x3e6d0e19	0.23149909
48	0x3e46c545	0.1941119
49	0x3e3cc9b1	0.18436314
50	0x3e33e3ef	0.17567419
51	0x3e36081c	0.17776531
52	0x3e34c645	0.17653759
53	0x3e11cd46	0.14238462
54	0x3e49e43e	0.19715974
55	0x3e426084	0.1898213
56	0x3e1e7490	0.15474153
57	0x3e20bf4e	0.15697977
58	0x3e289f43	0.16467004
59	0x3e48abe9	0.19596829
60	0x3e4baaca	0.1988937
61	0x3e2819a2	0.16416028
62	0x3e622f42	0.2208834
63	0x3e334692	0.17507389
64	0x3e6cf71a	0.23141137
65	0x3e6a03cf	0.22853015
66	0x3e64425c	0.22290939
67	0x3e18de8b	0.14928643
68	0x3e41eb96	0.18937525
69	0x3e24c4c2	0.16090682
70	0x3e40f2a7	0.18842565
71	0x3e4dedc2	0.20110229
72	0x3e41616a	0.18884817
73	0x3e3a708f	0.18207
74	0x3e3e1e43	0.18566231
75	0x3e472351	0.19447066
76	0x3e484c66	0.19560394
77	0x3e37d222	0.17951253
78	0x3e3a9f6a	0.18224874
79	0x3e228ffe	0.15875241
80	0x3e7a8b02	0.2446709
81	0x3e506a0c	0.20352954
82	0x3e591f13	0.2120326
83	0x3e5af31e	0.21381804
84	0x3e1ea19c	0.15491337
85	0x3e419909	0.18906035
86	0x3e32a9c5	0.17447574
87	0x3e4a0792	0.1972945
88	0x3e3617b4	0.1778248
89	0x3e2742a7	0.1633402
90	0x3e4f439d	0.20240636
91	0x3e23e643	0.16005807
92	0x3e4b8adf	0.19877194
93	0x3e490eaf	0.19634508
94	0x3e60877f	0.21926688
95	0x3e01aca4	0.12663513
96	0x3e8542a8	0.26027417
97	0x3e68013f	0.22656725
98	0x3e3705c4	0.17873293
99	0x3e56ba20	0.20969439
100	0x3e4e0b09	0.20121397
101	0x3e6fc531	0.23415066
102	0x3e31b6fa	0.17354956
103	0x3e1ca058	0.15295541
104	0x3e239912	0.1597636
105	0x3e3dc04d	0.18530388
106	0x3e6022b9	0.21888246
107	0x3e219e6d	0.15783091
108	0x3e491b9a	0.19639435
109	0x3e38ce22	0.18047383
110	0x3e8050f8	0.25061774
111	0x3e06a384	0.13148314
112	0x3e6d81b1	0.23194005
113	0x3e5e4152	0.21704605
114	0x3e2a4cef	0.1663091
115	0x3e371dfc	0.17882532
116	0x3e3d4c02	0.18486026
117	0x3e33b62f	0.17549966
118	0x3e01d1e9	0.1267773
119	0x3e49e501	0.19716264
120	0x3e54c7a6	0.20779285
121	0x3e8517fe	0.25994867
122	0x3e4e8bbf	0.20170496
123	0x3e57b4c9	0.21065058
124	0x3e1821ca	0.1485664
125	0x3e42bd7e	0.19017598
126	0x3e6184fd	0.22023387
127	0x3e41e840	0.18936253
128	0x3e3cac5f	0.1842513
129	0x3e3f1580	0.18660545
130	0x3e447089	0.19183554
131	0x3e4bdc0d	0.19908161
132	0x3e1bbb1c	0.15208095
133	0x3e522461	0.2052169
134	0x3e3da6b5	0.18520625
135	0x3e4d701f	0.20062302
136	0x3e5a61e2	0.21326402
137	0x3e435ee7	0.19079171
138	0x3e31b56e	0.17354366
139	0x3e2e04be	0.16993997
140	0x3e3efd5d	0.18651338
141	0x3e3d8024	0.18505913
142	0x3e230634	0.15920335
143	0x3e30b1fa	0.17255393
144	0x3e74d94d	0.23911019
145	0x3e33d747	0.1756259
146	0x3e58be5f	0.21166371
147	0x3e5c8a65	0.21537168
148	0x3e5587e3	0.20852618
149	0x3e41071c	0.18850368
150	0x3e21c1bd	0.15796562
151	0x3e36a6e7	0.17837106
152	0x3e49bbe9	0.19700588
153	0x3e713620	0.23555803
154	0x3e4ce080	0.20007515
155	0x3e4068b5	0.18789943
156	0x3e756da5	0.23967607
157	0x3e443a7f	0.1916294
158	0x3e3691d9	0.17829074
159	0x3e44001b	0.19140665
160	0x3e81620f	0.25270125
161	0x3e62c343	0.22144799
162	0x3e2f751f	0.17134522
163	0x3e3bd32a	0.18342271
164	0x3e410d03	0.1885262
165	0x3e285063	0.16436915
166	0x3df87e13	0.12133422
167	0x3e547ec6	0.20751485
168	0x3e5c647e	0.2152271
169	0x3e7421ee	0.23841068
170	0x3e48fa43	0.19626717
171	0x3e36360e	0.17794058
172	0x3e0fc7e8	0.14041102
173	0x3e5acaa3	0.21366362
174	0x3e443f8c	0.19164866
175	0x3e3b80ef	0.18310903
176	0x3e2b7fef	0.16748022
177	0x3e62ba1a	0.22141305
178	0x3e727f28	0.23681319
179	0x3e4cdf34	0.2000702
180	0x3e1ead36	0.15495762
181	0x3e33b760	0.17550421
182	0x3e81986c	0.253116
183	0x3e4a43fa	0.19752494
184	0x3e6f8c8e	0.23393461
185	0x3e2df02c	0.1698615
186	0x3e6d0f18	0.23150289
187	0x3e338f36	0.175351
188	0x3e3f77f6	0.18698105
189	0x3e4b424f	0.19849513
190	0x3e526186	0.20545015
191	0x3e3a186f	0.18173383
192	0x3e35a456	0.1773847
193	0x3e25fd83	0.16209988
194	0x3e42a83e	0.19009492
195	0x3e2c561b	0.16829722
196	0x3e347732	0.17623594
197	0x3e55fb2f	0.208966
198	0x3e4041f0	0.18775153
199	0x3e2a1c39	0.16612329

running_var f4 [200]
0	0x3d6d7fff	0.057983395
1	0x3daa0e7e	0.083035454
2	0x3db1ba9b	0.0867817
3	0x3d4a30a4	0.049362794
4	0x3ddfc270	0.10925758
5	0x3daebfcd	0.08532677
6	0x3d434fd3	0.04768355
7	0x3e0b9e67	0.13634644
8	0x3d83aa2a	0.064289406
9	0x3e0dce87	0.13848315
10	0x3dec591e	0.11540435
11	0x3dae0f4b	0.08499011
12	0x3da8b2df	0.08237242
13	0x3da0bdc0	0.07848692
14	0x3ddce67e	0.107861504
15	0x3e03be53	0.12865572
16	0x3d6ad308	0.05733016
17	0x3d958171	0.073000796
18	0x3de5169c	0.11185953
19	0x3da11cb5	0.078668036
20	0x3dc8f206	0.09811787
21	0x3d9375dc	0.07200214
22	0x3dc2cc6c	0.09511647
23	0x3dbe2502	0.092844024
24	0x3d97e1bb	0.074161015
25	0x3dab0a57	0.083515815
26	0x3da7d0a0	0.08194089
27	0x3dbe7876	0.0930032
28	0x3d935fa2	0.07195975
29	0x3d9c5af2	0.07634534
30	0x3da1c721	0.07899309
31	0x3d6c1f59	0.057647083
32	0x3d5d5fee	0.054046564
33	0x3db01963	0.08598592
34	0x3da707a6	0.08155756
35	0x3d87bd2c	0.066278785
36	0x3d600ad1	0.054697815
37	0x3dddc33b	0.10828253
38	0x3d9d4b88	0.07680422
39	0x3d6588d5	0.056038696
40	0x3e2fa58d	0.17152996
41	0x3dc393d4	0.0954968
42	0x3dd45c20	0.10369134
43	0x3da5383f	0.08067369
44	0x3dc61250	0.096714616
45	0x3d841fa0	0.064513445
46	0x3d97311b	0.07382413
47	0x3d9ad9d8	0.07561082
48	0x3da3ede4	0.080043584
49	0x3dcd66c2	0.10029365
50	0x3da7f24c	0.08200511
51	0x3da80e97	0.08205908
52	0x3dbdbf6a	0.09265025
53	0x3d6eb0c0	0.05827403
54	0x3dc94515	0.098276295
55	0x3daf46ab	0.08558401
56	0x3d8f47a6	0.06996088
57	0x3d7dfcef	0.062008794
58	0x3d887711	0.06663335
59	0x3da17345	0.07883314
60	0x3df35ab3	0.11882534
61	0x3d9c7a1a	0.076404765
62	0x3d7ef5e1	0.062246207
63	0x3db2953e	0.08719872
64	0x3d8cbcfe	0.06871985
65	0x3e04dfb4	0.12975961
66	0x3dd37eb6	0.103269026
67	0x3d46ed15	0.048565943
68	0x3df2873f	0.118422024
69	0x3d4ab80e	0.049491934
70	0x3d974fe5	0.073882855
71	0x3ddb04e0	0.10694289
72	0x3dddc4c2	0.10828544
73	0x3dab60cc	0.08368072
74	0x3d7331db	0.059373718
75	0x3dbb2b4e	0.09139119
76	0x3dcc3447	0.099709086
77	0x3d54ac22	0.05192197
78	0x3d9e4c2c	0.077293724
79	0x3da09289	0.07840449
80	0x3ddefcba	0.108880475
81	0x3df3cabe	0.119039044
82	0x3d82b172	0.06381501
83	0x3d749764	0.05971469
84	0x3d770c67	0.060314562
85	0x3d3ed0db	0.0465859
86	0x3d5c9d1f	0.05386078
87	0x3db0afca	0.08627279
88	0x3db806b0	0.089856505
89	0x3d9e8b98	0.07741469
90	0x3de02fbd	0.10946605
91	0x3d8c21aa	0.068423584
92	0x3e0a81ed	0.13526125
93	0x3d6dcbbc	0.058055624
94	0x3da1dd4a	0.07903536
95	0x3d598e10	0.053113997
96	0x3def4ac8	0.11684185
97	0x3db6c46f	0.089241855
98	0x3dfa0e76	0.122097895
99	0x3d997980	0.074938774
100	0x3da8147c	0.08207032
101	0x3e0f5930	0.13998866
102	0x3d707e8b	0.05871443
103	0x3d5410e6	0.051773928
104	0x3d986340	0.074408054
105	0x3daf56bd	0.08561466
106	0x3d770a79	0.060312722
107	0x3d7246fc	0.059149727
108	0x3dcf4873	0.101212405
109	0x3d736b7b	0.059428673
110	0x3e123263	0.14277034
111	0x3d91bab8	0.07115692
112	0x3e30c04c	0.17260855
113	0x3dde18ee	0.10844599
114	0x3dbf9b83	0.093558334
115	0x3db22545	0.08698515
116	0x3d9f2074	0.07769862
117	0x3db82609	0.0899163
118	0x3d5b44f6	0.053532563
119	0x3d9e6c51	0.077355035
120	0x3e037e5d	0.12841173
121	0x3e4b38d3	0.19845895
122	0x3d8725f3	0.06599035
123	0x3da3ed24	0.08004215
124	0x3d6dd5a5	0.058065075
125	0x3d9a9939	0.07548756
126	0x3ddb9c54	0.107231766
127	0x3da5e4c7	0.081002764
128	0x3dbb835b	0.091559134
129	0x3d9c3a13	0.07628264
130	0x3d9703c2	0.073737636
131	0x3d9491da	0.072543815
132	0x3d67f6bf	0.0566318
133	0x3df03d80	0.1173048
134	0x3dcf315a	0.10116835
135	0x3da8f73e	0.08250283
136	0x3dfac051	0.12243713
137	0x3da63c4a	0.08116968
138	0x3d291e08	0.041288406
139	0x3def4a9e	0.11684154
140	0x3dacc0e1	0.08435226
141	0x3d4963d1	0.049167458
142	0x3d82cf97	0.06387251
143	0x3d98c472	0.07459344
144	0x3dabeffa	0.08395381
145	0x3dcecadc	0.10097286
146	0x3de9c135	0.114138044
147	0x3e07b812	0.13253811
148	0x3dd852ae	0.10562645
149	0x3d9f8987	0.07789903
150	0x3da1184e	0.07865964
151	0x3de21cb4	0.11040631
152	0x3d8c3eac	0.06847891
153	0x3dd71162	0.105013624
154	0x3dc4421c	0.09582922
155	0x3db60064	0.08886793
156	0x3dd27a69	0.10277254
157	0x3dde8828	0.108658135
158	0x3d8d36a8	0.068951905
159	0x3da055bb	0.07828852
160	0x3db063a9	0.08612759
161	0x3d9a26c3	0.075269245
162	0x3d6a70e9	0.057236586
163	0x3daeea0c	0.08540735
164	0x3d8af3db	0.06784793
165	0x3da51afb	0.08061787
166	0x3d35894c	0.04432039
167	0x3da549bc	0.08070704
168	0x3e1134fe	0.14180371
169	0x3e1058c6	0.14096364
170	0x3db8a85d	0.09016488
171	0x3db488b4	0.088151366
172	0x3d5ea012	0.054351874
173	0x3da195ac	0.07889876
174	0x3db0b85c	0.08628914
175	0x3d9c4c9e	0.07631801
176	0x3d888cd1	0.066674836
177	0x3dc32b2e	0.0952972
178	0x3dd944ed	0.1060885
179	0x3dad1c2f	0.08452641
180	0x3d9b9633	0.075970076
181	0x3d77e1c8	0.060518056
182	0x3ddf4a80	0.109028816
183	0x3de91e94	0.113827854
184	0x3dcb0d56	0.09914653
185	0x3d8546bb	0.065076314
186	0x3dc70477	0.097176485
187	0x3dc82c75	0.097741045
188	0x3d989fd6	0.07452361
189	0x3d61d3d8	0.05513367
190	0x3db9301b	0.090423785
191	0x3da70e7d	0.0815706
192	0x3d94f9ad	0.072741844
193	0x3ddb96f8	0.107221544
194	0x3d998456	0.07495944
195	0x3d9870ac	0.074433655
196	0x3da0880a	0.078384474
197	0x3dee3573	0.116312884
198	0x3dc0fa8b	0.09422787
199	0x3dc0be6e	0.094113216

weight f4 [100, 200]
0	0x3d330565	0.043706317
1	0xbcc63141	-0.024193408
2	0xbd0d38b8	-0.03447792
3	0xbd3a8415	-0.04553612
4	0x3d59c60f	0.0531674
5	0x3cfb0560	0.030642211
6	0xbc2905d7	-0.010316334
7	0xbd4184d8	-0.04724583
8	0x3dc0021e	0.09375404
9	0xbd598cb7	-0.05311271
10	0xbd38159d	-0.044942487
11	0xbde080f2	-0.10962094
12	0x3bc8cd79	0.00612801
13	0x3a3d5687	0.00072226714
14	0x3bb22c63	0.00543742
15	0x3dcd5f34	0.10027924
16	0xbe081b0c	-0.13291568
17	0x3d9871d3	0.07443585
18	0x3cceddcc	0.025252245
19	0x3d19c635	0.03754254
20	0xba4a15e7	-0.0007708952
21	0x3a025f36	0.0004973294
22	0x3cb36379	0.021898018
23	0xbc0cd2ad	-0.008595151
24	0xbe0487e6	-0.12942466
25	0xbce52932	-0.027973745
26	0x3cb92aaf	0.022603361
27	0x3c863a4e	0.016385224
28	0x3a4be9c4	0.0007778669
29	0xbd40e2e0	-0.047091365
30	0x3c02be76	0.00797998
31	0xbdac400f	-0.08410656
32	0xbce9ea6a	-0.02855416
33	0xbd78cdef	-0.06074327
34	0xbcdc0387	-0.02685715
35	0xbd7ef5c6	-0.062246107
36	0x3c138fc4	0.009006444
37	0x3baca468	0.005268622
38	0xbc9af8ba	-0.01891743
39	0xbccf59b2	-0.025311325
40	0xbc94a35a	-0.018144298
41	0xbd2c1fcb	-0.042022508
42	0xbda6b383	-0.08139708
43	0x3d9a2b8f	0.075278394
44	0xbd58b50f	-0.052907046
45	0x3d8ab4e9	0.06772787
46	0xbd1b7c4e	-0.037960343
47	0x3d06c7df	0.032905456
48	0x39ebc9a0	0.00044972915
49	0xbd9bb639	-0.076031156
50	0x3c912f59	0.017722772
51	0xbd82260d	-0.06354914
52	0xbb58f43a	-0.0033104555
53	0x3cf43aa5	0.02981312
54	0xbc33ac9f	-0.010966449
55	0xbc03c1f2	-0.008041846
56	0xbd53b7dc	-0.051689014
57	0x3d3a51cc	0.045488164
58	0xbd99a5c3	-0.0750232
59	0x3d00bd93	0.031430792
60	0x3cfaa020	0.030593932
61	0x3cba58fc	0.02274751
62	0x3de21847	0.11039787
63	0xbb7f4c7b	-0.0038955498
64	0xbd9f9486	-0.077920005
65	0x394c967a	0.00019511013
66	0xbdc0d7e5	-0.094161786
67	0xbcc5ad5e	-0.02413052
68	0xbcfc6d4a	-0.030813832
69	0xbda0510c	-0.078279585
70	0xbd55724d	-0.05211096
71	0xbd753710	-0.059866965
72	0xbbd7ca55	-0.006585399
73	0x3c9f26c8	0.019427672
74	0x3dacc023	0.08435085
75	0xbd6e0185	-0.058106918
76	0x3d59f28a	0.05320982
77	0xbcfef6ad	-0.031123484
78	0x3b84294b	0.004033243
79	0x3d316153	0.043305706
80	0xbe0cdc66	-0.1375595
81	0xbd5b2d97	-0.053510275
82	0xbdd19bc5	-0.10234789
83	0x3cff64ff	0.031176088
84	0x3d0fd5c3	0.03511597
85	0xbde51b6b	-0.1118687
86	0xbc1cffd7	-0.009582481
87	0xbd40f1af	-0.047105487
88	0x3d92cff1	0.07168568
89	0xbd4a91ed	-0.049455572
90	0xbcdd8a52	-0.027043495
91	0x3c9756fc	0.018474095
92	0xbd3dc2cc	-0.04632835
93	0x3d2dd56e	0.04243987
94	0xbcbedadb	-0.023297718
95	0xbb826293	-0.003979036
96	0xbd1b5c3b	-0.037929755
97	0x3d66c196	0.05633696
98	0xbd08f06c	-0.03343241
99	0x3d9258a9	0.07145817
100	0xbddd756a	-0.108134106
101	0xbc21a50f	-0.009866013
102	0xbd768c16	-0.06019219
103	0xbe17b598	-0.14815366
104	0xbd4ffbb4	-0.050777152
105	0x3ce0f064	0.027458377
106	0x3cd97284	0.026543863
107	0x3ae6fc87	0.0017622866
108	0xbba614ca	-0.005068396
109	0xbc9b72d0	-0.018975645
110	0x3d006f2a	0.031356014
111	0xbdb7d3e5	-0.089759625
112	0xbdd3cde6	-0.103420064
113	0x3d9b2c74	0.07576838
114	0x3d3e12f1	0.046404783
115	0xbd70a103	-0.058747303
116	0xbd917d0f	-0.07103931
117	0xbde39150	-0.111117005
118	0xbd938fe0	-0.07205176
119	0xbdaa04f5	-0.08301727
120	0x3cfd7fa6	0.030944657
121	0xbdb91fe8	-0.09039289
122	0x3de003fa	0.109382585
123	0xbd895746	-0.06706099
124	0xbd8d054c	-0.06885776
125	0x3d9657d7	0.07340973
126	0xbdaa0358	-0.08301419
127	0xbc6b6371	-0.01436697
128	0xbd559a51	-0.05214912
129	0xbd4e8444	-0.050419107
130	0xbb0d6701	-0.0021576288
131	0xbcca21d5	-0.024674335
132	0xbdaf60b1	-0.08563364
133	0x3c00e52e	0.007867141
134	0x3d1797b4	0.03700991
135	0xbd926a00	-0.07149124
136	0xbc4c0b1b	-0.01245382
137	0xbd274d1b	-0.040845018
138	0x3dc1bc0b	0.094596945
139	0xbd7a2015	-0.061065752
140	0xbd92298c	-0.07136831
141	0x3bd86101	0.0066033606
142	0x3cf15302	0.029458527
143	0xbd1cd8ef	-0.03829282
144	0x3dfbd5d6	0.12296645
145	0x3cffe1e3	0.03123564
146	0xbc1f0686	-0.009706145
147	0x3c8321c1	0.016007306
148	0x3bf7e29d	0.007564856
149	0xbc54b322	-0.012982162
150	0xbc938fa1	-0.018012824
151	0x3a89e80e	0.0010521428
152	0x3d414a92	0.047190256
153	0xbd976542	-0.0739236
154	0xbd91f8ae	-0.0712751
155	0xbd219655	-0.03945001
156	0xbe0c490e	-0.13699743
157	0xbd73db62	-0.05953539
158	0x3cf39ec4	0.029738791
159	0x3ca2d131	0.01987514
160	0x3d39d6fc	0.04537104
161	0x3d56f349	0.05247811
162	0x3dc561ac	0.0963777
163	0xbca8666b	-0.02055665
164	0x3d4c6d1f	0.049908753
165	0x3dbc696d	0.09199796
166	0xbdbd01bf	-0.09228849
167	0xbbd402d3	-0.0064700632
168	0xbc236e53	-0.009975034
169	0x3d837589	0.064189024
170	0xbc7234a3	-0.014783057
171	0xbda138a0	-0.078721285
172	0x3cdaa283	0.02668882
173	0xbd963c53	-0.07335725
174	0xbd324913	-0.04352672
175	0x3d4a2825	0.04935469
176	0xbce1c054	-0.02755753
177	0xbd60ebde	-0.05491244
178	0xbd8c57f1	-0.06852711
179	0xbda82c7e	-0.08211611
180	0xbc491a4f	-0.012274339
181	0x38a6e758	7.958588e-05
182	0xbd620efb	-0.055190068
183	0xb79719c4	-1.80126e-05
184	0x3d1290cd	0.035782624
185	0x3db3cac0	0.08778906
186	0xbc84e743	-0.016223555
187	0xbd1ae423	-0.037815224
188	0x3ceda383	0.029008633
189	0xbc33e72e	-0.0109804105
190	0x3c316139	0.010826402
191	0x3cdd23db	0.026994636
192	0xbc834f08	-0.016028896
193	0x3cce9f8c	0.025222562
194	0x3b806be0	0.0039191097
195	0x3c60da27	0.013723887
196	0x3d0be7ec	0.034156725
197	0x3d1d0d04	0.03834249
198	0xbd851d62	-0.06499745
199	0x3d070b23	0.032969605
200	0xbd145090	-0.036209643
201	0xbc938aef	-0.018010585
202	0xbca36edf	-0.019950328
203	0x3cd03138	0.025414094
204	0xbd12eae8	-0.035868555
205	0xbb800f30	-0.0039080605
206	0x3d7b4fe8	0.0613555
207	0x3d1392cd	0.036028672
208	0xbcccbfcc	-0.0249938
209	0xbd8d6b1f	-0.06905197
210	0x3bd07770	0.0063618943
211	0x3bd86b80	0.006604612
212	0x3dc42adc	0.09578487
213	0xbd9c3899	-0.07627983
214	0xbc961873	-0.018322205
215	0x3cd068a1	0.025440516
216	0xbdc7cdbc	-0.097560376
217	0xbcd11f1c	-0.02552753
218	0xbc5a99de	-0.013342349
219	0xbcaaf5cc	-0.020869158
220	0x3c360d9f	0.011111646
221	0x3d0acef0	0.033888757
222	0xbe0bfcf1	-0.13670708
223	0x3d273325	0.04082026
224	0xbd5403bd	-0.051761378
225	0xbd8fbec0	-0.070188046
226	0xbcb0ec9c	-0.0215972
227	0x3d69dbc7	0.05709436
228	0xbd615d4d	-0.05502062
229	0xbc90ca62	-0.017674629
230	0xbd55ba44	-0.05217959
231	0xbca0209f	-0.019546805
232	0x3c74e2c6	0.014946645
233	0x3dfe0133	0.124025725
234	0x3d63a535	0.055577476
235	0x3cb8e63c	0.022570722
236	0xbd94483d	-0.07240341
237	0x3d941b65	0.072317876
238	0x3d8bd53d	0.06827781
239	0x3d8fdcc4	0.070245296
240	0x3cb68b91	0.022283347
241	0x3d2a7d94	0.041623667
242	0xbd382ae8	-0.044962794
243	0xbd3204e2	-0.043461688
244	0x3da2b4cf	0.07944643
245	0xbd5087eb	-0.05091087
246	0xbdaa1a50	-0.083058
247	0xbd7d62f4	-0.061861947
248	0xbd1e0d3e	-0.038586847
249	0x3d63f040	0.055649042
250	0x3dab9642	0.08378269
251	0x3da683c0	0.08130598
252	0x3c571fb3	0.013130116
253	0xbc556765	-0.013025139
254	0xbd14d341	-0.03633428
255	0x3c25547e	0.010090945

weight f4 [100]
0	0x3f773c65	0.9657653
1	0x3f5fc72b	0.8741328
2	0x3f78dd73	0.97212905
3	0x3f74336c	0.95390964
4	0x3f7bb675	0.9832528
5	0x3f6dc034	0.92871404
6	0x3f69324f	0.9109239
7	0x3f5c8fc6	0.8615688
8	0x3f681f70	0.9067297
9	0x3f737a81	0.951088
10	0x3f70d9a2	0.9408208
11	0x3f6f1780	0.93395233
12	0x3f6c8f1f	0.92405885
13	0x3f7394f9	0.9514919
14	0x3f600fe4	0.8752425
15	0x3f732076	0.94971406
16	0x3f509550	0.8147783
17	0x3f7073a9	0.93926483
18	0x3f6c4a04	0.9230044
19	0x3f7ae5e0	0.9800701
20	0x3f702d40	0.93819046
21	0x3f708c2f	0.93963903
22	0x3f5b0e80	0.85569
23	0x3f5c63ff	0.8609008
24	0x3f57b2de	0.84257305
25	0x3f638207	0.8887028
26	0x3f67fb04	0.90617394
27	0x3f70bf8f	0.94042295
28	0x3f5e2b39	0.867847
29	0x3f722d67	0.9460053
30	0x3f5a4700	0.8526459
31	0x3f775842	0.96619046
32	0x3f735018	0.9504409
33	0x3f71ec5f	0.945013
34	0x3f79b24d	0.9753769
35	0x3f78efe0	0.9724102
36	0x3f76818e	0.96291435
37	0x3f6aa27a	0.9165417
38	0x3f750448	0.9570966
39	0x3f71f098	0.9450774
40	0x3f826530	1.018713
41	0x3f624613	0.88388175
42	0x3f6938d2	0.91102326
43	0x3f7eee4f	0.9958238
44	0x3f64d834	0.893924
45	0x3f5e7070	0.86890316
46	0x3f706c97	0.93915695
47	0x3f7175a1	0.9432011
48	0x3f6af714	0.9178326
49	0x3f72f600	0.94906616
50	0x3f7942b2	0.97367394
51	0x3f6fa52a	0.93611395
52	0x3f6da84c	0.92834926
53	0x3f6cb3a5	0.92461616
54	0x3f710637	0.9415011
55	0x3f7d005c	0.98828673
56	0x3f6a2c88	0.914742
57	0x3f743062	0.95386326
58	0x3f72a573	0.94783705
59	0x3f57bfa8	0.8427682
60	0x3f6be107	0.9214024
61	0x3f72cc5a	0.94843066
62	0x3f716666	0.9429687
63	0x3f793aae	0.97355163
64	0x3f6d0894	0.92591214
65	0x3f687ae7	0.90812534
66	0x3f70838b	0.9395072
67	0x3f7528e3	0.95765513
68	0x3f643df9	0.8915706
69	0x3f7051bb	0.9387471
70	0x3f749dc7	0.9555325
71	0x3f6cfaeb	0.9257037
72	0x3f5948a9	0.84876496
73	0x3f72414c	0.94630885
74	0x3f71bd22	0.9442922
75	0x3f6ae301	0.9175263
76	0x3f741ecf	0.9535951
77	0x3f71f9cd	0.9452179
78	0x3f6b9cdc	0.92036223
79	0x3f6d995d	0.9281214
80	0x3f6d6033	0.92724913
81	0x3f71ee0d	0.9450386
82	0x3f67358c	0.9031608
83	0x3f7d1641	0.9886208
84	0x3f71e2a5	0.9448646
85	0x3f6f3a6c	0.9344852
86	0x3f576fbc	0.8415487
87	0x3f702eef	0.93821615
88	0x3f7a9f30	0.9789915
89	0x3f741a32	0.9535247
90	0x3f657a24	0.89639497
91	0x3f670ab7	0.90250725
92	0x3f6e4e98	0.93088675
93	0x3f71550b	0.9427039
94	0x3f5475de	0.8299235
95	0x3f79a47c	0.9751661
96	0x3f75ce6d	0.96018106
97	0x3f4168e6	0.7555069
98	0x3f6fb540	0.9363594
99	0x3f6b9439	0.92023045

bias f4 [100]
0	0xbc93239e	-0.01796132
1	0x3cdba75a	0.026813198
2	0x3c3770f9	0.011196368
3	0xbb5c664c	-0.003363031
4	0xbcf18ff7	-0.029487593
5	0xbbace82c	-0.0052767005
6	0x3cd353de	0.025796827
7	0x3c5f4c14	0.013628978
8	0x3c68cbdd	0.014208761
9	0x3b185209	0.0023242256
10	0x39985a94	0.00029059185
11	0x3cacb212	0.021081004
12	0xbc614068	-0.013748266
13	0x3b1be01e	0.0023784707
14	0xbc53c9bf	-0.012926518
15	0xbba0a91e	-0.004902973
16	0xbc8d813e	-0.017273542
17	0xbce4c177	-0.027924282
18	0x3c10ed32	0.008845614
19	0x3c2d4fb5	0.010578086
20	0xbc60d907	-0.013723618
21	0xbbdb4422	-0.0066914717
22	0x3d5bc376	0.053653203
23	0xbcf249f0	-0.029576272
24	0x3af680cc	0.0018806695
25	0x3cfcf399	0.030877875
26	0xbc15c62d	-0.009141487
27	0xbc3b8518	-0.011445306
28	0x3ada4410	0.0016652364
29	0xbbe46dd1	-0.006971099
30	0xbcc70ac6	-0.02429713
31	0x3c93e5bf	0.018053887
32	0xbba81498	-0.005129408
33	0xbc093c96	-0.008376261
34	0x3c7d6eea	0.0154683385
35	0x3d07617c	0.033051953
36	0x3c264d1c	0.01015022
37	0xbcc23b3d	-0.023709888
38	0xbce3a64c	-0.027789257
39	0xbc27c6e6	-0.010240292
40	0x3cc89ccf	0.024488835
41	0xbcb35c4c	-0.021894597
42	0x3d33b978	0.04387805
43	0xbb02ac1c	-0.001993901
44	0xbb59475b	-0.0033154103
45	0x3d01cfe2	0.031692393
46	0xbc112be6	-0.008860564
47	0x3be2f39a	0.006926012
48	0x3bfd768a	0.007735078
49	0xbb77edbe	-0.0037830914
50	0xbc8c9520	-0.017160952
51	0xbcd4ac59	-0.025961088
52	0x3b1bcd30	0.0023773424
53	0xbbc63246	-0.0060484735
54	0x3c8fd797	0.017558856
55	0x3c30e21f	0.010796099
56	0x3c659c9b	0.014014388
57	0x3cf71069	0.030159192
58	0x3c5b0c3e	0.013369618
59	0xbd16d9d1	-0.03682882
60	0xbc696969	-0.014246323
61	0xbc7e68b2	-0.015527891
62	0x3c6d3f39	0.0144804055
63	0x3cd64d21	0.026159825
64	0x3c43897f	0.011934637
65	0xbcb2be49	-0.02181925
66	0x3c1d4f95	0.009601493
67	0x3ca51542	0.020151738
68	0x3cc69c46	0.024244439
69	0x3c6a9740	0.014318287
70	0xbb083795	-0.0020785083
71	0x39e77fb8	0.0004415491
72	0x3c733840	0.014844954
73	0x3d162e8e	0.03666549
74	0x3c8d35d7	0.017237587
75	0xbb183939	-0.0023227467
76	0x3c37c9cb	0.011217545
77	0xbc19cf04	-0.009387735
78	0x3bb61363	0.0055565103
79	0x3c83cd9e	0.016089257
80	0x3abfeb4a	0.0014642265
81	0x3c8df36e	0.01732799
82	0xbaffdeb4	-0.0019521327
83	0xbcd67bab	-0.026182016
84	0xbc8ad847	-0.016948832
85	0xbbb358ee	-0.0054732477
86	0xbdbe9bbc	-0.09307048
87	0xbb90f3bb	-0.004423586
88	0xbd166b9e	-0.036723725
89	0xbb58b201	-0.0033065083
90	0x3c11c18b	0.008896242
91	0x3d49611b	0.049164873
92	0x3cebc781	0.028781654
93	0x3ca46c84	0.020071276
94	0x3db904ff	0.09034156
95	0xbb91140e	-0.0044274395
96	0x3bf00c75	0.0073257037
97	0x3c4151b7	0.0117992675
98	0x3d2327f3	0.03983302
99	0x3c8bfbbe	0.017087813

running_mean f4 [100]
0	0x3f02469b	0.50888985
1	0x3ee332ab	0.44374594
2	0x3f231382	0.6370164
3	0x3ef7e48b	0.48416552
4	0x3ef7f62b	0.4843
5	0x3ed08c52	0.40732056
6	0x3ede40f5	0.43408933
7	0x3f27b6ca	0.6551329
8	0x3f0797b4	0.52965856
9	0x3f174938	0.590961
10	0x3f08663d	0.53281003
11	0x3f037891	0.51355845
12	0x3f0b21b7	0.5434832
13	0x3effd868	0.49969792
14	0x3ee3a204	0.44459546
15	0x3f08326e	0.5320195
16	0x3ef3f797	0.47649834
17	0x3f06ab10	0.5260477
18	0x3ef47cd9	0.477515
19	0x3f593ab4	0.848552
20	0x3ed77627	0.4208233
21	0x3efd4556	0.49466962
22	0x3f006904	0.5016024
23	0x3f33fd9b	0.70308846
24	0x3f2b4280	0.66898346
25	0x3f03d79c	0.5150087
26	0x3ec3211f	0.38111207
27	0x3efd0c02	0.49423224
28	0x3f1a0e04	0.60177636
29	0x3ef12e9e	0.4710588
30	0x3f0f9b29	0.5609613
31	0x3f038be9	0.5138536
32	0x3f11177d	0.56676465
33	0x3eced647	0.40397856
34	0x3f038be2	0.5138532
35	0x3f0a2a27	0.5397057
36	0x3ed53ff5	0.41650358
37	0x3f0a2416	0.5396131
38	0x3f158f0f	0.58421415
39	0x3ef6209f	0.48071763
40	0x3f235db7	0.6381487
41	0x3ecd6de2	0.40122896
42	0x3ea8eace	0.32991642
43	0x3f3832d5	0.71952564
44	0x3f1564da	0.5835701
45	0x3ecbcfdc	0.39807022
46	0x3eb67739	0.35637835
47	0x3eed0d95	0.46299425
48	0x3f0cab8d	0.54949266
49	0x3f1ed599	0.62044674
50	0x3effb947	0.49946043
51	0x3ef3fa4e	0.47651905
52	0x3ed9ee5c	0.42564666
53	0x3ed5b5d3	0.41740283
54	0x3f1226b4	0.57090306
55	0x3f1ab52d	0.604327
56	0x3eafafce	0.34313816
57	0x3f066160	0.5249233
58	0x3f06e4e4	0.5269301
59	0x3f052e4b	0.5202376
60	0x3f0b9fbf	0.5454063
61	0x3ed12886	0.4085123
62	0x3ee6c9fe	0.45075983
63	0x3f18ec01	0.59735113
64	0x3f005452	0.5012866
65	0x3eb33f08	0.35009027
66	0x3f0ac663	0.54208964
67	0x3f0afd7a	0.54293025
68	0x3eaf2e62	0.34215075
69	0x3f1c9d33	0.61177367
70	0x3ed31b21	0.41231635
71	0x3f1934b2	0.5984603
72	0x3f17b294	0.59256864
73	0x3ed1473d	0.40874663
74	0x3ef5dade	0.48018545
75	0x3f0e274c	0.5552871
76	0x3ef4a4c2	0.4778195
77	0x3efb70a3	0.49109372
78	0x3ee10fea	0.43957454
79	0x3ec3d4f7	0.38248417
80	0x3ecbb9cd	0.39790192
81	0x3f05fb4c	0.52336574
82	0x3ed04d98	0.406842
83	0x3f235da3	0.63814753
84	0x3f0e9129	0.55690247
85	0x3ebefc51	0.37301877
86	0x3f878a42	1.0589068
87	0x3ecf2248	0.40455842
88	0x3ef51216	0.4786536
89	0x3efa7858	0.4891994
90	0x3fa227ca	1.2668393
91	0x3ef431c6	0.47694224
92	0x3eece510	0.4626851
93	0x3ec8f42d	0.3924879
94	0x3f2abd93	0.6669552
95	0x3efb974b	0.49138865
96	0x3f0b1efc	0.54344153
97	0x3f660183	0.89846057
98	0x3eea551b	0.45768055
99	0x3f187224	0.59549165

running_var f4 [100]
0	0x3f33726a	0.70096457
1	0x3f15fe70	0.58591366
2	0x3f50b3cd	0.81524354
3	0x3f35f41b	0.710756
4	0x3f295879	0.66150624
5	0x3ef236f2	0.47307545
6	0x3f2da361	0.6782742
7	0x3fc62bca	1.5482113
8	0x3f6dc8df	0.9288463
9	0x3f589b8f	0.84612364
10	0x3f1a90ac	0.60377
11	0x3f803b68	1.0018129
12	0x3f771056	0.965093
13	0x3f4621f7	0.77395576
14	0x3f71f253	0.9451038
15	0x3ef78d14	0.48349822
16	0x3f302e6c	0.68820834
17	0x3f356742	0.70860684
18	0x3f3bf4d9	0.7342048
19	0x3fb74c94	1.4320245
20	0x3f1e6f40	0.61888504
21	0x3f5a457b	0.8526227
22	0x3f718073	0.9433662
23	0x3febf2c7	1.8433465
24	0x3f5ed656	0.870458
25	0x3f3c9004	0.7365725
26	0x3ecb3f6a	0.3969682
27	0x3efba7f9	0.4915159
28	0x3f704d59	0.93868023
29	0x3f10bf6b	0.5654208
30	0x3f76e502	0.9644319
31	0x3f3b3b76	0.73137605
32	0x3f2adf59	0.6674705
33	0x3f1fef0f	0.6247415
34	0x3f49156e	0.78548324
35	0x3f511660	0.81674767
36	0x3f86f227	1.0542649
37	0x3f881501	1.063141
38	0x3f84690e	1.034456
39	0x3f3dd9fb	0.74160737
40	0x3f79503b	0.97388047
41	0x3f0e66fe	0.55625904
42	0x3ed84c05	0.42245498
43	0x3fc46d67	1.5345887
44	0x3f4fcdac	0.81173205
45	0x3ee78c0f	0.45224044
46	0x3e971ee6	0.2951576
47	0x3f277530	0.6541319
48	0x3f37fa24	0.7186606
49	0x3fa110bc	1.2583232
50	0x3fb11940	1.3835831
51	0x3f296e0b	0.6618354
52	0x3f4a314a	0.7898146
53	0x3ed0472b	0.40679297
54	0x3f214d02	0.6300813
55	0x3f5fd75a	0.87437975
56	0x3e97eee8	0.29674459
57	0x3f220b49	0.6329847
58	0x3f45c960	0.772604
59	0x3f65676c	0.89610934
60	0x3f4e59b0	0.806056
61	0x3f154df0	0.5832205
62	0x3f075261	0.52860075
63	0x3f5525fb	0.8326108
64	0x3f02b308	0.5105443
65	0x3f005557	0.5013022
66	0x3f7cbaed	0.98722726
67	0x3f334d4d	0.70039827
68	0x3ef8c029	0.48584107
69	0x3f1aa35b	0.6040551
70	0x3edf8751	0.43657926
71	0x3f0a1a23	0.5394613
72	0x3f903b27	1.1268052
73	0x3f076057	0.5288138
74	0x3f2c26cd	0.67246705
75	0x3f38af4a	0.7214247
76	0x3f16e399	0.58941036
77	0x3f8258f1	1.0183393
78	0x3f0b40b7	0.5439562
79	0x3ef795bd	0.4835643
80	0x3ee0ec2d	0.43930188
81	0x3f05ae0c	0.522187
82	0x3f278b95	0.6544736
83	0x3f37bb88	0.71770525
84	0x3f4b2c6a	0.79364645
85	0x3ec312e7	0.3810036
86	0x4062b56f	3.5423238
87	0x3ee8d537	0.4547517
88	0x3f5a7f5e	0.85350597
89	0x3f671ee9	0.9028154
90	0x40bdb247	5.9280124
91	0x3f1fc695	0.6241239
92	0x3f086ec7	0.5329403
93	0x3ea11af5	0.3146588
94	0x40035020	2.0517654
95	0x3f581750	0.8441057
96	0x3f468fe9	0.7756334
97	0x3fbe390d	1.486116
98	0x3f13f802	0.57800305
99	0x3f83448a	1.0255291
