PDH_ML/AutogluonModels/ag-20230321_090953/models/NeuralNetFastAI/model-internals.pkl (torch, 150883 bytes, 15 tensors)

weight f4 [41]
000000 11 c3 7a 3f 2f 44 71 3f d6 b4 81 3f 2a e8 84 3f
       0.979539 0.94244665 1.0133312 1.0383351
000010 3d b2 75 3f 86 ff 7e 3f ba 13 78 3f 47 66 80 3f
       0.95975095 0.9960865 0.969051 1.0031213
000020 58 37 87 3f b1 93 81 3f c1 b8 80 3f 19 6e 81 3f
       1.0563765 1.0123197 1.0056382 1.0111724
000030 c3 65 8f 3f db 95 72 3f 60 96 7a 3f d1 a9 6e 3f
       1.120293 0.9475991 0.97885704 0.9322787
000040 ad 6c 79 3f 6f e3 7c 3f 88 6f 83 3f 8f f6 71 3f
       0.9743145 0.98784536 1.0268412 0.94516844
000050 e4 48 7b 3f e3 65 81 3f eb b5 86 3f e2 3d 7f 3f
       0.981581 1.0109218 1.0524267 0.997038
000060 97 b4 86 3f 43 7c 7d 3f 55 af 7f 3f c7 18 74 3f
       1.0523862 0.99017733 0.9987691 0.9535031
000070 fe da 7a 3f 8a 3c 7c 3f 10 50 74 3f 0f c2 79 3f
       0.97990406 0.98529875 0.95434666 0.97561735
000080 41 e5 78 3f b1 36 88 3f b1 a3 80 3f 64 61 80 3f
       0.97224814 1.064169 1.0049955 1.0029721
000090 32 db 82 3f 77 bb 82 3f 06 3f 7b 3f e5 88 82 3f
       1.0223143 1.021346 0.9814304 1.0198027
0000a0 c4 97 77 3f
       0.9671595

bias f4 [41]
000000 c5 d7 74 3d cd b2 35 bc 9e 25 9b 3a 79 e2 47 3d
       0.059776086 -0.011089993 0.0011836772 0.048799966
000010 fd 44 7e 3d a9 6f 53 bc db 60 3a 3c 0f fb 1a 3b
       0.06207751 -0.01290504 0.011375631 0.0023648178
000020 47 25 f8 3b 5e 94 98 3d e0 41 e7 3c 8c b1 18 3b
       0.007572803 0.07450174 0.028229654 0.0023299186
000030 6e 1d e5 3c 0b fb 95 3c a3 2f 06 bc ee 12 cd bc
       0.027968135 0.018308183 -0.008190068 -0.02503344
000040 22 2b 57 3c 91 50 f5 3c 90 3b 24 bd 32 ee 3b 3d
       0.013132842 0.029945644 -0.040095866 0.045881458
000050 8f 53 70 bd 44 ca 8d bd a9 36 30 3b 34 d3 60 bd
       -0.058673438 -0.06923345 0.0026888049 -0.05488892
000060 f6 1b a1 bc e2 75 ec bc 7e 14 90 3c 66 69 34 bd
       -0.019666653 -0.028864805 0.017587896 -0.04404583
000070 4c f4 1c 3d 93 7a 0e 3c 82 40 92 3c 9c 02 6f 3c
       0.038318917 0.008696216 0.017853025 0.0145880245
000080 dc 22 6c 3c 62 40 d7 3c 40 29 1e bc ac 38 d1 3c
       0.014412608 0.026275817 -0.009653389 0.025539719
000090 8a ca 08 bc 76 18 02 3d 19 13 2d bd 02 72 35 bd
       -0.00834907 0.03176161 -0.04225454 -0.04429818
0000a0 0a b2 06 3d
       0.032884635

running_mean f4 [41]
000000 5a f9 46 b9 c6 ed b9 3b 95 5b 0f 3b bc 3a 24 bb
       -0.00018975642 0.0056740968 0.0021874656 -0.0025059422
000010 a6 e4 08 bb b2 59 46 3c db c1 16 bc cd cb cc ba
       -0.0020888238 0.012106346 -0.009201492 -0.0015624702
000020 b0 1f 0e bc a7 cc 03 bc 14 7a 6e ba ff d1 30 bc
       -0.008674547 -0.008044398 -0.00090971706 -0.0107922545
000030 60 3a b5 3b 25 e4 53 3b 62 2c c4 3b a5 cb 57 3b
       0.0055306405 0.003233203 0.005986736 0.0032927778
000040 0f 73 5d bb 7a 48 a4 3a 26 c2 fb bb ab 5f 17 bc
       -0.0033790504 0.0012533807 -0.0076830564 -0.009239118
000050 94 22 ff bb fe 25 cd 3b 20 7a b0 bb 4b ca 04 bc
       -0.0077861045 0.0062606325 -0.005385652 -0.008104871
000060 16 c1 43 bb 68 60 16 3a da be e6 3b 86 b7 c3 3a
       -0.0029869727 0.00057364115 0.0070417942 0.0014932014
000070 a9 fc d4 bb 09 2d 13 3c ea 71 9f bb 2a aa c4 39
       -0.006499846 0.008982905 -0.0048658745 0.00037510815
000080 c7 3b 95 bb 30 d3 7c 3c ee 88 88 bb c2 d3 cd 3b
       -0.004554245 0.01543121 -0.004166714 0.006281347
000090 ce 8f b4 bb 8b 45 74 bb c0 4b 9a 3a c8 fe db 3b
       -0.005510307 -0.0037272896 0.0011771843 0.006713722
0000a0 0b dc b3 bb
       -0.0054888777

running_var f4 [41]
000000 ca 9b 7a 3f c0 1c 85 3f 20 09 85 3f 39 b1 7d 3f
       0.97893965 1.0399399 1.039341 0.99098545
000010 41 64 79 3f d3 24 8b 3f 80 8f 5f 3f b0 26 7d 3f
       0.974186 1.0870613 0.8732834 0.9888716
000020 06 7b 76 3f 20 4d 7e 3f 49 45 80 3f e6 37 73 3f
       0.9628147 0.99336433 1.0021144 0.9500717
000030 0f 1a 82 3f 54 55 83 3f 49 65 83 3f b9 78 80 3f
       1.0164202 1.0260415 1.0265285 1.0036842
000040 97 37 7a 3f a1 78 81 3f e9 2d 66 3f 4d 0c 72 3f
       0.97741073 1.0114938 0.89913803 0.9455002
000050 44 c1 6e 3f 0e 89 8e 3f a9 55 7a 3f 69 70 6d 3f
       0.9326365 1.1135576 0.9778696 0.9274965
000060 9f a8 7e 3f ad fd 86 3f 05 08 84 3f 23 ea 80 3f
       0.99476045 1.0546166 1.0314947 1.0071453
000070 6b c2 6a 3f aa 67 8f 3f 84 90 79 3f ba 19 80 3f
       0.9170291 1.1203511 0.9748614 1.0007851
000080 f0 b4 78 3f d8 58 7e 3f 60 ee 6f 3f e2 e9 82 3f
       0.9715109 0.99354315 0.93723106 1.0227625
000090 5f 9d 7d 3f c2 4a 80 3f 8b 7e 80 3f 98 3c 7d 3f
       0.99068254 1.0022814 1.0038618 0.98920584
0000a0 ea 19 7c 3f
       0.9847704

weight f4 [200, 41]
000000 1c f0 93 3c 57 5e 81 3d 71 da 09 be ed 59 cc bd
       0.018058829 0.06316822 -0.13462235 -0.099780895
000010 df 9b 12 bd c9 e2 17 3d 98 4a 7a 3d 9a fd d0 3d
       -0.03579318 0.037081514 0.061106294 0.10204621
000020 75 b7 ab 3d 1b 61 72 3d ef 58 9d bc 47 97 22 3c
       0.08384601 0.05917464 -0.019207446 0.009923763
000030 e5 2d 03 be d5 69 81 bd 14 37 b5 bc 82 3a e0 bb
       -0.12810476 -0.06319014 -0.02212099 -0.006842912
000040 46 40 81 3d 29 2c bd 3d cb 0f 8a bd a9 02 f4 bc
       0.06311087 0.092369385 -0.067412935 -0.029786425
000050 14 29 7a 3d c7 c7 17 3e 1c 87 6c bc f5 98 1b 3e
       0.06107433 0.14822303 -0.014436509 0.15195067
000060 0f f1 cc bc 47 16 3a 3c a8 a7 1f 3e d6 03 17 be
       -0.02501729 0.01135785 0.155913 -0.14747557
000070 fb 9e 82 bd f9 7f 3e bd 5e c3 b4 bc de 64 ed 3d
       -0.06377979 -0.046508763 -0.022065815 0.115915045
000080 75 81 d1 bd a1 fa 2c be 9d ab d9 bd 93 22 f7 bd
       -0.1022977 -0.16892482 -0.10628436 -0.120671414
000090 7d 26 b7 bd 68 5f e7 3d 34 72 39 3d 77 e5 c6 3d
       -0.08942888 0.11297494 0.04527493 0.09711736
0000a0 37 89 e6 3c b1 4e ea bd af d9 8e 3d 83 2e 22 be
       0.028141601 -0.114407904 0.069751136 -0.15838055
0000b0 d5 5e a4 bd 2c 20 da bd 80 e5 e6 3d 4c 38 90 3d
       -0.080259 -0.106506675 0.112742424 0.07041988
0000c0 8c be ca bd 85 c8 ee bc 74 21 2d 3d 5c 11 22 3e
       -0.09899625 -0.02914835 0.04226823 0.15826935
0000d0 4c 70 5c 3d 36 43 58 3d d8 2c 02 3e 31 f5 00 be
       0.053818032 0.052798472 0.12712419 -0.12593533
0000e0 36 39 4b 3d 30 a5 1b be 04 ae 16 be aa d2 f2 bd
       0.049615107 -0.15199733 -0.14714819 -0.11856587
0000f0 7b 78 3c 3d 78 26 31 3d d6 2c 08 be 06 1d db 3d
       0.046013337 0.043249577 -0.13298354 0.10698895
000100 3b 07 a2 3d 03 70 ce bc 7f 4f e9 bb ac a2 af 3b
       0.07911535 -0.025199896 -0.0071200724 0.005359968
000110 0e fa a6 3d 4d 24 07 3e 5b eb 18 be fb 9f ae bd
       0.08153163 0.13197441 -0.14933531 -0.085266076
000120 5d 07 38 3d 06 38 04 3e 77 2a 11 3e 10 95 2b 3e
       0.044928897 0.12911996 0.14176355 0.16756082
000130 ca b1 8a 3c 21 00 e9 bd e9 d9 20 3d 89 80 ed bd
       0.01693048 -0.11376978 0.039270315 -0.11596782
000140 ea ab 2e be 65 fa f5 3d b5 f8 df 3d 07 bd 23 be
       -0.17057768 0.120106496 0.10936109 -0.15990077
000150 c1 b7 58 3d 6f fc 74 bd 83 5b 0c bd a7 69 d1 bd
       0.052909616 -0.059811052 -0.03426696 -0.1022523
000160 92 db 41 3d 12 14 ad bd af bf 2a 3b 95 20 f4 3c
       0.04732854 -0.08451094 0.0026054194 0.029800693
000170 54 d3 db 3d 9f a7 28 3d 18 99 24 be 4d cd d7 bd
       0.10733667 0.04117548 -0.16074026 -0.10537205
000180 68 07 a9 3d 5c be a8 3c ca 83 fd bd 78 a4 c3 bd
       0.08253366 0.020598583 -0.123786524 -0.09552854
000190 07 2b 02 3e 90 7b bf 3d 15 b2 95 bd 3a 76 25 bd
       0.12711726 0.093497396 -0.07309357 -0.040395953
0001a0 47 5d 1e be 51 a0 8b bc d1 d3 13 be 1c 28 04 be
       -0.1546527 -0.017044218 -0.1443627 -0.12905926
0001b0 06 cf d0 3c 8e 26 78 3c 32 f1 91 bd 62 b7 09 3e
       0.025489341 0.015145911 -0.071260825 0.13448861
0001c0 c8 3a d2 bd 6a 08 47 3e f5 90 04 3e 0e 38 39 be
       -0.10265118 0.19436803 0.12945922 -0.1808779
0001d0 eb ae f8 bc 85 9a 5e 3c 3a 0a da 3c dd c6 05 3c
       -0.030356845 0.013586645 0.026616205 0.0081650885
0001e0 a7 37 97 3d e3 2d b7 3c 1f 03 45 bd ef bd 87 3d
       0.07383662 0.022360748 -0.04809868 0.06628024
0001f0 aa 7d 1e be a8 17 1e be 9d 75 4c bb 00 c3 d5 bd
       -0.15477625 -0.15438712 -0.0031198033 -0.10437584
000200 d7 6e a7 bd f9 a3 1d be 3c 97 03 bd 15 03 55 bb
       -0.08175438 -0.15394582 -0.03212665 -0.0032503058
000210 1c b6 8f bd be f3 33 3d 7a fc d5 3d 7c c0 57 3d
       -0.070171565 0.043933623 0.10448547 0.0526738
000220 a5 f5 c8 3c 77 ad db bc a5 07 1b 3d 4e 42 37 3d
       0.024531195 -0.026816113 0.037849087 0.044740967
000230 50 f7 11 3e fd 34 8c 3d 0c 35 05 3e 65 76 39 3b
       0.14254498 0.06846044 0.13008517 0.0028299328
000240 aa ad ee bd fc 06 af bd 2f ed da 3d 25 a2 59 3d
       -0.116542175 -0.08546254 0.106897704 0.05313315
000250 c8 0c 5d bd 5b ae 00 be 4e 07 0d be 08 e5 16 be
       -0.053967267 -0.12566511 -0.13772318 -0.14735806
000260 25 aa 1b bd 97 0c ea 3d ca b6 d5 3d 9e 0b 20 be
       -0.03800406 0.114281826 0.10435255 -0.15629432
000270 59 c8 89 3d 39 5b 4c be 45 fc 59 bc bb 70 dd bc
       0.067276664 -0.19956674 -0.013304775 -0.027031293
000280 0f e3 fa bc 8e 47 fa bd 76 c6 24 be 1a fe 54 be
       -0.030625848 -0.12220679 -0.16091332 -0.20800057
000290 e8 bc 6c 3c 8e f5 26 3c 91 d5 8f bd f8 5a b3 3d
       0.014449336 0.010190381 -0.070231564 0.08757585
0002a0 fe d7 0d be f4 a2 6c b8 a6 d0 28 3e 74 10 9e bd
       -0.13851926 -5.6418547e-05 0.16485843 -0.07717982
0002b0 e0 e2 df 3d 25 1e 80 3d 2f c3 b2 bd 43 87 aa 3d
       0.10931945 0.062557496 -0.087286346 0.083265804
0002c0 8d fe 5c bd 05 ef 5b bd 2f 74 ed 3d ed 0e bd bd
       -0.053953696 -0.053694744 0.11594426 -0.092313625
0002d0 0f 2c 4a bc 7b c1 f4 bc b6 b6 0a 3e 88 8b 23 3d
       -0.012339606 -0.029877415 0.13546261 0.03992799
0002e0 51 0e 61 3d 15 d2 86 3d 2a 97 dd 3c ad ba d7 3c
       0.054945294 0.06583039 0.02704962 0.026334131
0002f0 5b 3b 35 be 1e 2c c2 3d 0c cc 28 3e bf 1a ad 3d
       -0.17698424 0.09481071 0.16484088 0.08452367
000300 27 0c d2 bd a1 dd c6 3c 26 af bc bd 01 dc 8e bd
       -0.10256224 0.024275603 -0.092130944 -0.06975556
000310 be 81 ad bd ec 39 5b 3d 01 a5 f3 bd bc e2 28 bd
       -0.08472012 0.053522035 -0.11896706 -0.041231856
000320 ee 8d 1a 3d 23 05 e2 3d ba a7 c0 bd a1 9a 09 be
       0.03773301 0.11036136 -0.09406991 -0.13437892
000330 15 b2 a0 bd 8f 3e c7 3d 34 04 9e bd 20 55 06 3e
       -0.078464665 0.09728729 -0.077156454 0.1311841
000340 68 85 10 3d d6 d6 91 3c f9 0f 93 bc f8 43 0b bd
       0.035283476 0.017802637 -0.017951952 -0.034000367
000350 99 9d af bb 88 13 81 bd 4a 69 ab bd 07 8d 1d 3d
       -0.0053593633 -0.063025534 -0.08369692 0.038464572
000360 f0 6f 30 be 74 c1 ca bd a0 61 dc 3d 9b bf 00 be
       -0.17230201 -0.099001795 0.10760808 -0.12573092
000370 11 e4 39 bb 52 27 43 3e 89 b1 73 bb 5f ef 25 3c
       -0.0028364698 0.19057968 -0.0037184677 0.010127871
000380 a1 80 0a be c8 e8 b1 3d 56 f3 e5 bd 96 9c 5f bd
       -0.1352563 0.086869776 -0.11228053 -0.05459269
000390 df 14 3d bd 66 f7 0c bc fb 6b 77 3b 06 64 ff 3d
       -0.046162482 -0.008603906 0.003775357 0.1247025
0003a0 90 2a fe 3b 4c 03 02 3e df f2 be 3d 25 8e e2 bd
       0.0077565387 0.1269657 0.09323668 -0.11062268
0003b0 21 a6 5c 3d 95 ce dd bd 00 46 03 be bf 88 e7 3c
       0.05386937 -0.10830418 -0.12819672 0.028263448
0003c0 2f b3 07 3d 64 40 0b 3e dc 41 d6 bd 04 b5 32 3c
       0.033129867 0.13598782 -0.104617804 0.010907415
0003d0 75 90 83 3d bf c6 1b be d3 4f e2 3d 9d 0c 25 be
       0.06424037 -0.15212534 0.110503815 -0.16118093
0003e0 ea 3f 7a 3d e4 77 37 bd 9a 86 f3 bd 27 3a 7c 3b
       0.06109611 -0.04479207 -0.118909076 0.003848681
0003f0 d3 84 1e 3e 3f 16 cd bd 3a 9e 30 bd 2f 11 cf bd
       0.15480356 -0.10014009 -0.043119647 -0.101106994

weight f4 [200]
000000 6a 2d 78 3f 55 53 7b 3f a2 be 7b 3f ae c1 83 3f
       0.96944296 0.9817403 0.9833776 1.0293481
000010 d2 95 7e 3f 85 7f 83 3f 06 3d 7c 3f c8 27 7c 3f
       0.9944736 1.0273291 0.98530614 0.984982
000020 9a 02 7c 3f a5 11 80 3f f9 32 81 3f d1 8c 7b 3f
       0.9844147 1.0005385 1.0093681 0.98261744
000030 3b ff 83 3f 6b 43 80 3f a9 10 80 3f ef 11 7a 3f
       1.0312265 1.0020574 1.0005084 0.97683614
000040 25 43 82 3f 64 b7 76 3f cf 60 81 3f a9 5e 80 3f
       1.0176741 0.9637358 1.0107669 1.0028888
000050 76 70 81 3f ed a0 81 3f 0a 4a 84 3f 72 f7 7b 3f
       1.0112445 1.0127236 1.0335095 0.98424447
000060 9c 9e 83 3f 60 55 81 3f 91 20 82 3f df 3b 82 3f
       1.0282779 1.0104179 1.0166188 1.0174521
000070 92 e1 86 3f 11 45 76 3f 9d bc 82 3f 4e 8b 80 3f
       1.0537589 0.96199137 1.021381 1.0042512
000080 76 4b 7f 3f 24 2e 74 3f bb 35 83 3f c2 82 83 3f
       0.9972452 0.95382905 1.0250772 1.0274279
000090 a0 06 83 3f 0e d8 80 3f 9f 8e 79 3f 93 0d 80 3f
       1.0236397 1.0065935 0.9748325 1.0004143
0000a0 2e b6 7a 3f 3f e1 81 3f 69 04 83 3f 8b 99 7d 3f
       0.97934234 1.0146865 1.0235721 0.9906241
0000b0 5a bd 83 3f 26 48 81 3f 24 60 75 3f 92 d7 80 3f
       1.029216 1.0100143 0.95849824 1.0065787
0000c0 9a 7d 7c 3f 22 63 73 3f 38 cf 83 3f 21 ce 82 3f
       0.9862915 0.9507314 1.0297613 1.0219156
0000d0 83 26 7d 3f 7e 6b 81 3f b6 7a 87 3f 16 58 85 3f
       0.9888689 1.0110929 1.0584323 1.0417507
0000e0 ac 8f 78 3f db e0 80 3f 6a 50 79 3f ab 0a 7b 3f
       0.97094226 1.006862 0.9738833 0.98063153
0000f0 8b 01 83 3f 43 dd 84 3f ec 89 87 3f 25 35 7b 3f
       1.0234846 1.0380024 1.0588965 0.9812797
000100 88 e4 7b 3f cb e6 83 3f aa 63 80 3f 7f d4 84 3f
       0.98395586 1.0304807 1.0030415 1.0377349
000110 a7 69 79 3f 26 07 78 3f ae 0e 7c 3f a5 13 80 3f
       0.9742684 0.9688591 0.984599 1.0005995
000120 c5 b0 7d 3f a2 56 7d 3f 85 99 82 3f c5 ed 73 3f
       0.99097854 0.98960316 1.02031 0.9528468
000130 bc 37 85 3f d5 a0 81 3f a4 7a 7c 3f aa 66 7c 3f
       1.0407634 1.0127207 0.98624635 0.9859415
000140 2f 36 7d 3f f5 2d 7a 3f ef ec 81 3f 67 c9 7e 3f
       0.989108 0.97726375 1.0150431 0.99526066
000150 0e f5 81 3f 97 4a 80 3f 09 d5 85 3f 62 5d 7f 3f
       1.015291 1.0022763 1.0455638 0.99751866
000160 67 a9 83 3f a3 21 78 3f 20 24 7f 3f 7f da 82 3f
       1.0286072 0.96926326 0.996645 1.022293
000170 65 a1 78 3f f0 91 7c 3f 32 31 7d 3f 12 bf 80 3f
       0.9712127 0.9866018 0.9890319 1.005831
000180 20 ca 83 3f 0a f9 79 3f b9 3f 85 3f 45 38 7c 3f
       1.0296059 0.9764563 1.0410072 0.9852336
000190 d4 4a 83 3f 95 3c 7d 3f 52 6b 7e 3f c7 ed 7b 3f
       1.0257211 0.98920566 0.9938251 0.98409694
0001a0 38 80 84 3f 0f 95 7a 3f 98 7e 83 3f 32 47 7b 3f
       1.0351629 0.97883695 1.0273008 0.9815551
0001b0 96 22 7b 3f 42 b8 7f 3f ee a7 82 3f 67 30 83 3f
       0.9809965 0.9989053 1.0207498 1.0249146
0001c0 9f 26 7e 3f f8 75 80 3f b2 ea 7a 3f 12 4f 7b 3f
       0.9927768 1.0036001 0.98014367 0.98167527
0001d0 ee 7a 76 3f a7 ed 85 3f e6 00 83 3f 26 ad 81 3f
       0.96281326 1.0463151 1.0234649 1.0130966
0001e0 58 46 82 3f dd a4 7d 3f d8 87 81 3f 96 76 82 3f
       1.0177717 0.99079686 1.0119581 1.019244
0001f0 e9 94 82 3f 83 2c 7a 3f 0c 34 72 3f 92 45 81 3f
       1.0201694 0.9772417 0.9461067 1.0099356
000200 b3 98 7d 3f 83 93 80 3f 71 7c 7b 3f cc 99 77 3f
       0.99061126 1.0045017 0.9823676 0.9671905
000210 89 85 80 3f c3 b2 78 3f e3 15 77 3f 4f b1 80 3f
       1.0040752 0.9714777 0.9651777 1.005411
000220 85 a0 7b 3f ea a8 78 3f c9 68 78 3f 77 62 74 3f
       0.9829181 0.9713274 0.9703489 0.95462745
000230 e7 ba 80 3f 3a 7f 78 3f 37 85 7f 3f cd 3e 75 3f
       1.0057038 0.9706913 0.99812645 0.9579895
000240 3c a8 84 3f 82 14 77 3f 2b 08 7b 3f cd 3b 86 3f
       1.0363841 0.9651567 0.9805934 1.0487
000250 bb 91 76 3f a2 7a 83 3f 37 96 7e 3f 86 f3 78 3f
       0.9631612 1.02718 0.9944796 0.9724659
000260 f9 cc 83 3f 00 38 7e 3f f0 54 7d 3f de a2 81 3f
       1.0296928 0.993042 0.9895773 1.0127828
000270 a2 8e 7b 3f 6b 27 86 3f 0d 84 81 3f 21 c1 83 3f
       0.98264515 1.048078 1.0118424 1.0293313
000280 d0 3b 87 3f 7e b6 7b 3f 3e 42 7f 3f 0b 93 7e 3f
       1.0565128 0.98325336 0.9971045 0.9944312
000290 8d 23 7c 3f cd 66 73 3f 35 bc 85 3f c4 be 81 3f
       0.98491746 0.95078737 1.0448061 1.0136342
0002a0 ec 76 7e 3f 2d c2 83 3f 9b e1 7a 3f f4 47 7d 3f
       0.9940021 1.0293633 0.98000497 0.98937917
0002b0 98 82 7e 3f 35 92 78 3f c2 2f 7c 3f 89 3e 81 3f
       0.9941802 0.97098094 0.9851037 1.0097209
0002c0 77 48 84 3f 86 10 85 3f e2 56 81 3f 52 af 84 3f
       1.0334615 1.0395668 1.010464 1.0366004
0002d0 7a c9 7d 3f 09 c2 7e 3f 2a a8 83 3f d8 61 81 3f
       0.99135554 0.99514824 1.0285695 1.0107985
0002e0 c7 28 80 3f 86 6c 84 3f 45 65 7f 3f ca 51 80 3f
       1.0012444 1.0345619 0.997639 1.002496
0002f0 66 01 79 3f a3 f2 7f 3f 1c 5c 82 3f c1 28 81 3f
       0.9726776 0.9997961 1.018436 1.0090562
000300 38 22 7b 3f 2f 97 84 3f 4e f5 77 3f 37 7b 7b 3f
       0.9809909 1.0358638 0.9685868 0.98234886
000310 ff 69 7e 3f c7 3f 7c 3f e3 e9 82 3f 8b 16 81 3f
       0.9938049 0.98534817 1.0227627 1.0085005

bias f4 [200]
000000 47 26 e2 3c 8a ca 95 3d dd 71 0d 3d 54 7f 63 bc
       0.027606143 0.07314022 0.034532417 -0.013885338
000010 3b 30 31 3d 6b 33 f7 3c a0 4a fd 3c 20 0e 28 3d
       0.043258887 0.030175885 0.030919373 0.041029096
000020 ac 87 72 3d 9a 16 d2 3d 1d f9 d5 3c 2b 93 ac bb
       0.059211418 0.10258217 0.026119763 -0.005266567
000030 b8 22 28 3d cc 31 f1 3c 68 cc dd bb e4 a9 23 3d
       0.041048735 0.02944269 -0.006768752 0.039956942
000040 79 b7 96 3c c9 e3 57 3d f3 08 f3 3b ca a8 18 3d
       0.018398033 0.052707467 0.0074168383 0.037270345
000050 52 d9 85 3d c4 1d 19 3d 47 4e aa 3d b7 c0 71 bd
       0.06535591 0.037381902 0.083157115 -0.059021678
000060 20 53 6e 3d 0b 72 38 3d 68 e6 7a 3d 46 45 b0 bc
       0.058184743 0.045030635 0.06125489 -0.021517407
000070 81 79 5b 3c 43 cc 81 3c f7 1d 93 3d 86 5b 35 3d
       0.013395668 0.01584447 0.0718345 0.044276737
000080 45 98 41 bd c9 a1 ee 3c b9 6c e8 3c e8 57 3b 3d
       -0.047264356 0.02912988 0.028372156 0.04573813
000090 fe 63 0a 3d cb a0 d8 3c cf 16 66 bd 8e 3c da bc
       0.033786766 0.02644386 -0.056174096 -0.026640203
0000a0 38 5e dc 3a bf 69 0a bc 69 30 a9 3c 97 aa 81 3d
       0.0016812747 -0.008448063 0.020652967 0.063313656
0000b0 83 b1 80 bc 15 d5 a2 ba 0d 73 2e 3d b4 86 66 3c
       -0.015709644 -0.0012423123 0.04259019 0.014070202
0000c0 6e 2a 8c bc b0 48 a3 3c 9f ec a5 bd db 08 ab bc
       -0.017110076 0.019932121 -0.081017725 -0.020878246
0000d0 27 ef 90 bd 27 41 d9 3c 59 23 b6 3d 40 76 17 3d
       -0.07076865 0.026520325 0.08893461 0.036978006
0000e0 17 44 7a 3d 0a c8 8c bc c4 87 84 bd d5 b2 80 3c
       0.06110009 -0.01718523 -0.06471208 0.015710274
0000f0 d9 cd 96 3b 75 3c ab 3c e5 42 da 3c d1 24 cb 3c
       0.0046021757 0.020902852 0.026643226 0.024797829
000100 a4 b6 53 bb 57 3e 87 3d f1 05 4c 3d 76 41 db bc
       -0.0032304907 0.06603687 0.049810354 -0.026764613
000110 6f 51 a1 bb 7c 45 25 3d 12 8d e4 3c dd 86 2e 3d
       -0.0049230377 0.04034947 0.027899299 0.042609084
000120 d0 b5 20 3d 13 23 be 3c 6c cc 3c bb 5a 48 3a bc
       0.03923589 0.023210084 -0.0028808368 -0.011369789
000130 a9 20 95 3c 1f 7a de 3c 1f c4 0a bd d2 ec 61 bc
       0.01820405 0.027157841 -0.033878442 -0.0137893725
000140 f9 21 10 3d 29 b4 0a 3d a6 93 67 3d 11 7b b8 3c
       0.03518865 0.03386322 0.056537293 0.02251962
000150 a6 03 41 bc fc 42 59 3d 8c d5 4e bc 8b b7 62 3c
       -0.011780655 0.053042397 -0.012624156 0.013837705
000160 ab 32 10 bd e9 56 47 bc 50 de 55 3d 18 af 99 3d
       -0.03520457 -0.012166717 0.052213967 0.075040996
000170 93 35 d6 bc 7f e1 93 bc f7 7f 13 3d bd 08 90 bb
       -0.026148593 -0.01805186 0.03601071 -0.004395573
000180 e1 59 09 3d 0c 50 28 3d d9 8b 20 3d 4c e1 07 3d
       0.03353298 0.041091964 0.03919587 0.033173844
000190 4e 77 a3 bc f5 df f3 3c 2d 26 54 3d de da 1b bd
       -0.01995435 0.029769877 0.05179422 -0.038050525
0001a0 af 29 58 bd c4 c3 49 3c 9f 45 9b 3d 8a c6 81 3a
       -0.052774128 0.012314741 0.075816385 0.0009901088
0001b0 80 ef 27 bd 8d 9a 4e ba eb c2 22 3d f1 ce 2f bd
       -0.04099989 -0.0007881306 0.03973667 -0.042921964
0001c0 d7 7a 39 bb c4 96 83 bc 93 28 06 bb 6a 28 f7 bc
       -0.0028301978 -0.016063102 -0.0020470961 -0.030170638
0001d0 32 7f 34 bd e9 85 65 bc fa 3c a6 3c be 0d fc 3b
       -0.044066615 -0.014008977 0.020292748 0.007692068
0001e0 1c 09 7a 3c 9e 9d e1 3a e7 7f f5 3c 8c 26 0b 3d
       0.015260961 0.0017213111 0.029968215 0.033972308
0001f0 e6 83 83 3d 59 43 97 bc 02 49 4c 3c 15 f1 7d 3c
       0.06421642 -0.018464731 0.012468578 0.015499373
000200 16 3d 34 bc 3f a8 91 3d 10 d6 6f 3d 41 7c 50 3b
       -0.011000892 0.071121685 0.058553755 0.0031812342
000210 7d 7c 97 3c 15 aa 89 3c 26 bf e3 ba bc e5 68 3c
       0.018491978 0.016804734 -0.0017375692 0.014214929
000220 54 36 38 3c b4 4f b4 3b 0d 12 c8 bc ef 4f fd bc
       0.011243422 0.0055026654 -0.02442267 -0.030921904
000230 37 47 43 bd fd 35 14 bc 8c db 24 bd 47 e6 a8 3d
       -0.047675338 -0.009046075 -0.04024844 0.08247047
000240 71 67 94 bc 86 ab 69 3d 01 76 b3 3d 15 3e 7a 3d
       -0.018115731 0.057048343 0.08762742 0.061094362
000250 cc fe 4e 3d f2 6f c1 3c 43 30 0c 3d e0 55 b1 3c
       0.050535962 0.02361295 0.034225713 0.021647394
000260 26 12 55 3d e9 93 a0 3c 32 2a 2f 3d a2 35 04 bd
       0.05201926 0.019601779 0.04276485 -0.03227771
000270 e7 18 25 3d e8 d7 9d 3c 93 c2 2a bc dc 54 83 3d
       0.04030695 0.019267991 -0.010422367 0.0641267
000280 44 ca 00 3c 1b 53 97 bc 15 28 04 3c 75 24 98 bb
       0.007860724 -0.018472245 0.008066197 -0.004643018
000290 75 54 10 3c 86 c1 1f 3c c8 13 ca bc 1a 29 40 3c
       0.008809199 0.009750729 -0.024667636 0.011728549
0002a0 94 21 5c 3d 9f 25 62 3b 4e 24 ca 3c 57 31 1f 3c
       0.05374296 0.0034507287 0.024675515 0.009716353
0002b0 ef 54 8b 3d 93 08 01 3d 96 57 a7 bb 1c e6 14 3d
       0.06803309 0.031502318 -0.0051068766 0.036352262
0002c0 07 87 98 3d b9 73 94 3b 6a 2e 80 3b 48 32 e2 bc
       0.074476294 0.004530397 0.003911783 -0.027611867
0002d0 5f 3e 9d 3d 43 d2 9e 3d b8 96 4a 3d 8e f1 10 3c
       0.07677912 0.07754948 0.049460143 0.008846654
0002e0 3d 26 58 bd be 4b 6b bd 60 ac c7 bb 6f 0c 08 3d
       -0.052770842 -0.05744528 -0.0060935467 0.033214983
0002f0 aa f3 58 bb 48 6c b3 bb 4f 7e e0 bc 93 fd 6c bc
       -0.003310422 -0.0054755546 -0.027403979 -0.014464754
000300 14 93 53 bd b0 eb 4f 3d 58 64 10 3d 7f 70 d9 bc
       -0.051653937 0.05076188 0.035251945 -0.0265429
000310 ac 75 ed 3b 4c 48 4f bd 6e de 82 3d 84 a6 39 bd
       0.0072466936 -0.050606057 0.06390081 -0.045324817

running_mean f4 [200]
000000 5d 57 50 3e ff d0 67 3e 23 62 55 3e 01 a9 78 3e
       0.20345826 0.2263832 0.20838217 0.2428322
000010 10 0d 5d 3e b0 86 4d 3e d7 50 79 3e 76 3e 24 3e
       0.21587014 0.2007091 0.24347244 0.16039452
000020 3e 16 71 3e 35 29 72 3e 56 f0 4d 3e 10 7d 56 3e
       0.23543641 0.23648532 0.20111212 0.20946145
000030 1d 6c 4f 3e ef 7c 88 3e 0b 1c 62 3e 98 38 6d 3e
       0.20256086 0.26657817 0.2208101 0.2316612
000040 a5 93 9b 3e f9 80 4c 3e 8a c7 87 3e 9e 9d 43 3e
       0.3038608 0.19971074 0.26519424 0.19103095
000050 80 7a 24 3e 56 d0 84 3e 43 2e 82 3e ae f3 7c 3e
       0.16062355 0.25940198 0.2542592 0.24702331
000060 fa 2e 11 3e 3e dd 6c 3e 57 7f 40 3e 7b 0a 76 3e
       0.14178076 0.23131272 0.18798576 0.24027435
000070 fa 66 81 3e 1d 93 37 3e 67 fd 81 3e 6e 90 7e 3e
       0.25273877 0.17927213 0.25388643 0.24859783
000080 c5 36 70 3e 07 5c 54 3e 32 af 65 3e eb 4b 73 3e
       0.23458393 0.2073823 0.22430113 0.23759429
000090 6c 64 82 3e 1c 71 69 3e 10 4a 30 3e 21 30 53 3e
       0.2546724 0.22797054 0.17215753 0.20623828
0000a0 92 a5 72 3e 86 40 74 3e ee c1 85 3e 51 bd 68 3e
       0.23695973 0.23852739 0.2612452 0.22728468
0000b0 d6 6d 68 3e 92 e8 60 3e 5e 14 67 3e ec d7 29 3e
       0.22698149 0.21963719 0.22566363 0.16586274
0000c0 79 8e 4c 3e 5f d2 5e 3e 55 c9 6c 3e ff c1 7e 3e
       0.19976224 0.21759938 0.23123677 0.24878691
0000d0 73 ca 6d 3e a1 14 4a 3e 4a 81 71 3e ef 17 45 3e
       0.2322176 0.19734432 0.23584476 0.19247411
0000e0 f4 53 72 3e 1c 9c 26 3e 2d 1c 88 3e 80 fc 6a 3e
       0.23664838 0.16270489 0.26583996 0.22947884
0000f0 e8 0a 70 3e 6b 30 60 3e 6e 88 56 3e f0 f6 92 3e
       0.2344166 0.2189347 0.20950481 0.28704023
000100 b9 0e 3c 3e 1c 02 2e 3e b9 ea 67 3e da 80 4a 3e
       0.18364991 0.16992992 0.22648133 0.19775715
000110 7e 51 29 3e e9 8e 33 3e dc 01 26 3e 5d 06 7c 3e
       0.16534993 0.17534985 0.16211647 0.24611802
000120 34 c3 55 3e ed cc 44 3e e0 66 3c 3e 74 e0 3c 3e
       0.20875245 0.19218798 0.18398619 0.18444997
000130 94 4b 5b 3e e1 bc 87 3e 00 ac 38 3e c0 ca 47 3e
       0.2141555 0.2651129 0.18034363 0.19510937
000140 1e d9 73 3e 80 37 63 3e ff 17 38 3e ad f1 59 3e
       0.23813292 0.2218914 0.17977904 0.21283598
000150 53 f9 6c 3e 3c df 46 3e c2 21 4c 3e 1f 38 6f 3e
       0.23141985 0.19421095 0.19934753 0.23361252
000160 d4 81 69 3e 16 82 69 3e 0b 10 5a 3e e9 be 4f 3e
       0.22803432 0.2280353 0.21295182 0.2028767
000170 d7 84 5c 3e 39 19 3c 3e 75 f0 65 3e 46 08 58 3e
       0.2153505 0.18368997 0.22455008 0.21096906
000180 a3 56 62 3e cb 12 53 3e 5b ab 3e 3e 2d a0 5b 3e
       0.22103362 0.20612638 0.18620054 0.21447821
000190 f0 a4 7a 3e cd b3 54 3e 35 20 53 3e 67 5d 70 3e
       0.24476981 0.20771714 0.20617755 0.2347313
0001a0 65 c9 77 3e 51 c9 77 3e 93 17 74 3e 64 14 43 3e
       0.2419792 0.2419789 0.23837118 0.19050747
0001b0 96 c2 5d 3e e8 f6 51 3e 7d c4 8c 3e 8b fa 21 3e
       0.2165626 0.20504344 0.2749366 0.15818231
0001c0 f2 0b 87 3e d2 3e 47 3e 02 62 7e 3e e3 97 68 3e
       0.263763 0.19457558 0.24842075 0.2271419
0001d0 70 1b 43 3e 30 de 2c 3e 24 0f 7d 3e dd a4 73 3e
       0.19053435 0.16881633 0.24712807 0.23793359
0001e0 6f bf 54 3e f9 60 6c 3e be b2 88 3e aa ba 8f 3e
       0.20776151 0.23083867 0.2669887 0.280721
0001f0 f2 d0 37 3e 16 57 57 3e 1d 3d 56 3e 10 0f 8a 3e
       0.179508 0.21029314 0.2092175 0.26964617
000200 0b a4 62 3e f6 53 57 3e e9 3a 41 3e 55 f2 54 3e
       0.2213289 0.21028122 0.18870129 0.20795567
000210 82 ea 50 3e 87 ff 3d 3e 54 4e 55 3e 7e bd 37 3e
       0.20401958 0.18554507 0.20830661 0.1794338
000220 aa a5 49 3e 32 ed 78 3e c0 6a 36 3e b6 5f 4a 3e
       0.19692102 0.24309233 0.1781416 0.19763073
000230 dc 7f 4d 3e 60 b1 25 3e 10 c3 6b 3e ef f6 41 3e
       0.20068306 0.16180944 0.23023629 0.18941854
000240 43 d7 22 3e 63 1e 58 3e 42 f3 34 3e 50 5f 6f 3e
       0.15902428 0.21105342 0.1767092 0.23376203
000250 df 11 3c 3e bd d4 6c 3e d7 c8 2c 3e f7 b8 75 3e
       0.18366192 0.23128028 0.1687349 0.2399634
000260 28 99 29 3e 85 e2 38 3e c7 71 96 3e 19 1d 1d 3e
       0.1656233 0.1805516 0.2938368 0.15343131
000270 67 21 63 3e 09 1e 80 3e 81 9c 82 3e 54 e4 52 3e
       0.2218071 0.25022915 0.25510028 0.20594913
000280 d2 96 81 3e eb 76 51 3e 34 17 5e 3e 7d c0 59 3e
       0.2531038 0.2045552 0.21688539 0.21264835
000290 fe 31 5c 3e e5 a4 31 3e a8 4e 73 3e 98 1f 3b 3e
       0.21503446 0.17348059 0.23760474 0.18273771
0002a0 39 7d 80 3e d5 c4 6c 3e ac 77 75 3e 57 43 73 3e
       0.25095537 0.2312196 0.23971432 0.23756157
0002b0 ae 10 58 3e 4d 64 33 3e 04 7d 15 3e c8 18 25 3e
       0.21100113 0.1751873 0.14598471 0.16122735
0002c0 4e bf 3b 3e 79 b7 26 3e ab 32 80 3e 44 8e 4a 3e
       0.18334696 0.16280927 0.25038657 0.19780833
0002d0 54 c3 5c 3e 7b a0 71 3e 54 d5 5d 3e 05 2c 28 3e
       0.21558887 0.23596375 0.2166341 0.16423042
0002e0 e9 d7 5c 3e 9d cb 5f 3e 6c 73 6a 3e 81 a3 73 3e
       0.21566738 0.21855016 0.22895592 0.2379284
0002f0 6b 67 1d 3e f2 6e 5d 3e d1 60 2c 3e 03 fa 80 3e
       0.15371482 0.21624354 0.16833808 0.25190744
000300 f5 da 8d 3e 9d a2 63 3e 25 83 81 3e f1 2c 2f 3e
       0.27706113 0.22230001 0.25295368 0.17106988
000310 13 dd 52 3e 77 45 73 3e fd 0c 7f 3e 52 e2 85 3e
       0.20592146 0.23756967 0.24907298 0.2614923

running_var f4 [200]
000000 3c ae 23 3e 11 93 40 3e aa d7 4e 3e 52 6a 30 3e
       0.15984434 0.18806101 0.20199457 0.17228058
000010 0f 1b 5e 3e 31 ff 45 3e 3c 76 2a 3e c3 77 02 3e
       0.2169001 0.19335629 0.16646665 0.12740998
000020 7b 89 73 3e 29 20 3f 3e 0a 60 ff 3d b4 45 3e 3e
       0.23782913 0.18664612 0.1246949 0.18581277
000030 0c df 1a 3e dc d4 40 3e bf d5 2b 3e 6a df 55 3e
       0.15124148 0.188312 0.16780756 0.20886007
000040 f9 e8 a9 3e d9 9c 50 3e fa 3c 69 3e a6 9a 11 3e
       0.33185557 0.20372333 0.22777167 0.1421915
000050 4d 53 f4 3d be 2c 95 3e 42 6d 40 3e 9d 7f 33 3e
       0.11929951 0.29135698 0.18791679 0.1752915
000060 5a a7 d0 3d 48 a1 26 3e 60 cb 07 3e 18 ef 07 3e
       0.1018817 0.16272461 0.13261175 0.13274801
000070 db 30 38 3e 68 73 47 3e 13 71 4c 3e 5e 19 5d 3e
       0.17987387 0.19477618 0.1996501 0.21591708
000080 90 15 49 3e c2 4f 4f 3e 3b 11 4f 3e 76 d8 0e 3e
       0.19637132 0.20245269 0.20221417 0.13949761
000090 31 63 fe 3d 87 ff 3f 3e 55 14 ea 3d dd 2e 13 3e
       0.12421263 0.1874982 0.11429659 0.14373346
0000a0 4e ad 74 3e 02 dd 40 3e b8 de 1d 3e 03 3e 32 3e
       0.23894235 0.18834308 0.15416992 0.17406468
0000b0 99 93 07 3e 05 3d 2b 3e 6b b4 27 3e bf 6a 20 3e
       0.13239898 0.16722496 0.16377418 0.1566572
0000c0 9f 30 10 3e 81 35 1d 3e 72 03 fe 3d 4d 5d 2b 3e
       0.14081047 0.15352441 0.12403001 0.1673481
0000d0 de 14 80 3e 2d 09 0a 3e 68 c2 46 3e e4 8a e8 3d
       0.2501592 0.13480063 0.19410098 0.11354616
0000e0 0b f8 38 3e 1e 9e 11 3e 1e 79 38 3e 36 0f 07 3e
       0.18063371 0.14220473 0.18014953 0.13189396
0000f0 0e 92 0b 3e 6f d9 0d 3e c1 04 f7 3d 85 26 36 3e
       0.13629934 0.13852476 0.120614536 0.17788132
000100 ad d4 2a 3e f8 ff 2f 3e d4 5b 33 3e be 52 28 3e
       0.16682692 0.17187488 0.17515498 0.16437814
000110 8a d2 18 3e c7 62 27 3e 20 ae c9 3d 79 dc 4a 3e
       0.14924064 0.16346274 0.09847665 0.19810666
000120 52 90 06 3e 4d 89 f0 3d 15 b6 11 3e 96 9e 0b 3e
       0.13140991 0.11744938 0.14229615 0.13634714
000130 81 ba 67 3e fd f6 25 3e 68 e1 2f 3e 47 1f 02 3e
       0.2262974 0.162075 0.1717583 0.12707244
000140 dc d0 51 3e 02 e6 25 3e ae 14 ce 3d 14 f4 3e 3e
       0.2048983 0.16201022 0.10062538 0.18647796
000150 35 a2 27 3e 16 03 0a 3e e1 10 e6 3d 6b 09 4f 3e
       0.16370471 0.1347774 0.11233688 0.20218436
000160 c2 dc 2a 3e 1c ab 55 3e dc 7f 80 3e 31 37 17 3e
       0.16685775 0.20866054 0.2509755 0.14767148
000170 a8 a8 63 3e 28 bb 04 3e 1a ad 4e 3e 03 42 2b 3e
       0.22232306 0.1296202 0.2018322 0.167244
000180 1a 35 10 3e 39 fa 4e 3e 70 5d 2e 3e 19 16 2d 3e
       0.14082757 0.2021264 0.17027831 0.16902961
000190 39 3d 38 3e 4f 51 21 3e c0 0e 2e 3e fb 58 11 3e
       0.17992105 0.15753673 0.16997814 0.141941
0001a0 26 10 06 3e f8 77 45 3e ab f0 5d 3e f9 c6 11 3e
       0.13092098 0.19284046 0.21673839 0.14236058
0001b0 4a 02 5e 3e c0 5b 29 3e 05 08 11 3e de f8 24 3e
       0.2168056 0.16538906 0.14163215 0.1611056
0001c0 d5 f6 19 3e c9 e5 0c 3e 11 37 15 3e bd ec 29 3e
       0.15035565 0.13759531 0.14571787 0.16594215
0001d0 32 af 27 3e 96 19 eb 3d 29 93 0b 3e 0a fa 1a 3e
       0.16375425 0.114794895 0.13630356 0.15134445
0001e0 74 0f 20 3e 03 af 49 3e df 4c 3c 3e 34 b0 36 3e
       0.15630895 0.19695668 0.18388699 0.17840654
0001f0 63 39 f7 3d fb ae 79 3e ed 8d 26 3e 22 d3 28 3e
       0.120714925 0.24383156 0.16265078 0.16486791
000200 51 96 1d 3e aa 41 3a 3e 2a e0 14 3e e8 37 37 3e
       0.15389372 0.18189111 0.14538637 0.1789242
000210 fd 3a 24 3e 5d d1 1e 3e 38 33 60 3e 93 7e 1f 3e
       0.16038127 0.15509553 0.21894538 0.15575628
000220 16 54 55 3e be c3 1d 3e d4 c5 17 3e 60 5a 14 3e
       0.20832857 0.15406701 0.14821559 0.144876
000230 88 b2 0f 3e 8e f2 07 3e db bf 33 3e 78 95 22 3e
       0.14032948 0.13276121 0.17553656 0.1587733
000240 46 eb d5 3d fb c8 32 3e f6 ac 2d 3e 16 da 41 3e
       0.104452655 0.1745948 0.1696051 0.1893085
000250 af 0b 1c 3e bc 6d 07 3e c6 68 fd 3d 62 a2 2f 3e
       0.15238832 0.13225454 0.123734996 0.17151788
000260 4e 2e 27 3e 08 8f 1f 3e 02 c0 6b 3e b0 9c 0d 3e
       0.16326258 0.15581906 0.23022464 0.13829303
000270 16 80 40 3e 3d e7 3e 3e c3 6a 13 3e 30 a3 1d 3e
       0.18798861 0.18642898 0.14396195 0.15394282
000280 05 be 29 3e 36 b9 35 3e a7 87 33 3e bd 8b 63 3e
       0.16576393 0.17746434 0.17532216 0.22221275
000290 c0 49 30 3e cd b3 16 3e cc 00 2f 3e 81 ff 10 3e
       0.17215633 0.14717026 0.17090148 0.14159967
0002a0 77 d3 2b 3e 7c 39 26 3e b9 65 7f 3e 59 2f 67 3e
       0.16779886 0.16232866 0.24941148 0.22576655
0002b0 15 4b 32 3e a4 12 3c 3e a8 0e 0c 3e 46 42 f8 3d
       0.17411454 0.18366486 0.13677466 0.12122016
0002c0 d0 76 0c 3e 1e e7 f9 3d 08 59 2b 3e e2 6c 13 3e
       0.13717198 0.12202285 0.16733181 0.14397004
0002d0 e3 b1 2c 3e bf f7 39 3e 7a ab 0d 3e ba 42 d1 3d
       0.16864733 0.18160914 0.13834944 0.10217805
0002e0 73 7a 0b 3e a3 7f 11 3e 2b cf 4f 3e 85 12 16 3e
       0.1362093 0.14208846 0.20293872 0.14655502
0002f0 f6 37 15 3e 9d db 3d 3e 03 71 ff 3d 86 70 2c 3e
       0.14572129 0.18540807 0.12472727 0.168398
000300 7f 68 63 3e a4 ea 0e 3e 33 11 44 3e 5b 4e 12 3e
       0.22207831 0.13956696 0.19147186 0.14287703
000310 4c c4 28 3e 87 81 58 3e ee b8 16 3e 4e 5f 62 3e
       0.16481131 0.21143161 0.14718983 0.22106668

weight f4 [100, 200]
000000 67 e7 d9 bc 61 c2 df 3c 06 53 ad bd 30 be 90 3c
       -0.026599599 0.027314367 -0.08463101 0.017668813
000010 42 1f 9f bd cc 28 80 3a 9f 61 e8 bc 6c 2a a5 ba
       -0.07769634 0.0009777783 -0.028366862 -0.0012601144
000020 f8 48 cf 3c 86 82 b8 bc d4 1b c5 3c 9c ef 51 3d
       0.025303349 -0.022523176 0.024061121 0.0512539
000030 5c 80 12 bc e9 21 a5 bd ca 61 b1 bc ec 73 0d bd
       -0.008941736 -0.080631085 -0.021653075 -0.03453438
000040 52 7a 5c bd ae 87 ae 3c 59 51 62 3d 0b 9f 06 3c
       -0.05382759 0.021304931 0.05525336 0.00821663
000050 b1 31 44 bd 93 6e 4c bd dd a5 95 3d b8 ab e4 bc
       -0.047898952 -0.04991014 0.073070265 -0.027913913
000060 08 c1 20 bd b9 2d fe bb 9e 30 48 3c c9 c6 a3 3c
       -0.03924659 -0.0077569154 0.0122186225 0.01999225
000070 ac 8a f6 3c 62 9a 22 bd 8f 95 d7 3a 50 5a b3 3d
       0.03009542 -0.039698012 0.001644777 0.0875746
000080 12 b0 2c bd b3 67 d2 3c 81 e8 54 bd b1 39 6e bd
       -0.0421601 0.025684213 -0.051979546 -0.058160488
000090 a3 40 64 bd ec f7 bc 3c f0 55 e3 bc 2e 5a 84 3d
       -0.055725705 0.023067437 -0.02775094 0.06462513
0000a0 55 8a f8 bb 74 c3 cd 3c 42 5d 78 bd 8a af f9 bb
       -0.00758485 0.025117613 -0.060635813 -0.007619803
0000b0 c7 64 b3 bc 0f 14 b7 bc 9f 65 88 3d db dc 35 3d
       -0.02189864 -0.022348432 0.06660008 0.044400077
0000c0 c1 3d 1c bc 15 3c 4b bc 2b 65 17 bd 25 e1 c0 bd
       -0.009536208 -0.012404461 -0.036961716 -0.09417943
0000d0 6b ed 5c bd 9c 84 a1 bd 50 b7 78 3c db 85 35 bd
       -0.053937357 -0.07886621 0.015180424 -0.044317108
0000e0 34 8f 29 bd b6 f8 12 3d 6c 01 f5 3c 80 ef 50 3d
       -0.041396335 0.03588172 0.029907905 0.051009655
0000f0 80 aa 48 3d 33 f1 3c bd 4c f9 3a 3d 7e a3 45 3b
       0.048990726 -0.046128463 0.045647904 0.0030157263
000100 20 38 5b bd c1 3b 98 3d dc 73 bc 3c 04 c0 d6 3c
       -0.05352032 0.07433272 0.023004465 0.026214607
000110 21 0b 42 3d b8 b2 9f bd 32 23 5b 3d b5 d6 c9 bc
       0.047373895 -0.0779776 0.05350036 -0.024638513
000120 1f f2 a4 bd 6e 70 1f 3d 45 03 59 bd 72 f5 26 bb
       -0.080539934 0.03892558 -0.052981634 -0.0025475887
000130 6f 88 aa 3c eb bc 9f 3d c2 fa d9 3c d6 06 b3 bd
       0.02081701 0.07799705 0.026608828 -0.08741538
000140 c0 37 0b bd 83 c1 fb 3b 36 b0 5c bd ee 15 6b 3c
       -0.033988714 0.0076829805 -0.053878985 0.01434849
000150 f0 6d 91 3d b8 79 17 bd 7f dc 09 be 2c 97 fa bc
       0.07101047 -0.036981314 -0.13463019 -0.030589662
000160 8b e1 97 bc 70 93 c8 3c e0 ef b3 3d ec a5 32 bd
       -0.018540164 0.024484366 0.08785987 -0.043615267
000170 bf df 0f 3d 68 f9 e0 3c 00 71 2e 3d 5f 9a 58 bd
       0.03512549 0.027462676 0.042588234 -0.052881595
000180 8e e0 a3 3d 19 f5 bc bc 99 53 98 bc 63 a4 ad 3c
       0.08001815 -0.02306609 -0.01859455 0.02119655
000190 ac fb 38 3d ef f5 1f 3d 8c 5e d8 bd 8f be 57 3d
       0.045161888 0.0390529 -0.105649084 0.052671965
0001a0 ac ee 38 3d 7c 33 eb 3c 0f 4a 37 bc d2 d5 52 bd
       0.04514949 0.028711073 -0.011187091 -0.051473446
0001b0 9f 8f ff 3a cb 7f 5b 3d 63 78 60 3d fc a3 73 bd
       0.0019497758 0.05358867 0.05480231 -0.05948256
0001c0 e4 72 ba 3c ee 02 8b 3c ff ca 3a bd 1a 74 92 3d
       0.022759862 0.01696917 -0.04560375 0.07151051
0001d0 0c 69 13 3d ad bd 18 bc 42 e8 8b 3d 82 1a b1 3c
       0.035988852 -0.009322566 0.06831409 0.021619085
0001e0 d9 e8 92 3d 0d 58 94 39 6e 8d 8e 3d 78 0a 5b bd
       0.071733184 0.00028294363 0.06960569 -0.05347678
0001f0 1d 00 ad bd d1 49 af 3c 72 23 e9 3c b6 7e ae bd
       -0.08447287 0.021397503 0.028459284 -0.08520262
000200 5c 9d 16 3d f6 fe 2d bc c5 ab 73 3c 3a 56 74 3d
       0.036771163 -0.010619869 0.014872496 0.059652545
000210 7c b4 da 3c e8 3e e1 3c 49 ad 04 3d 6f 0b a6 bd
       0.02669739 0.027495816 0.03239182 -0.081076495
000220 a9 10 c3 3b 58 40 0b 3d 3a e9 60 3d c5 38 9e 3c
       0.005952914 0.03399691 0.054909922 0.01931418
000230 3f 46 09 3d fa 55 9c 3b e0 37 15 3d e2 33 81 bd
       0.033514258 0.0047709914 0.03643024 -0.06308724
000240 06 0a 36 bd 37 0d 2e 3b ed bc 46 3d 25 b4 94 3c
       -0.044443153 0.002655817 0.048520017 0.018152306
000250 82 8f b8 3c b9 5e ae bd 1f 32 30 3d 06 f5 d0 bc
       0.022529367 -0.08514161 0.04301655 -0.025507461
000260 fb 38 85 bc c0 b4 b4 bb 96 44 9a 3d 79 2e bc 3c
       -0.016262522 -0.005514711 0.07532613 0.022971379
000270 3e 1b 54 3d 4e 37 db bc 19 ff c9 3c 7d e2 94 3c
       0.051783793 -0.02675977 0.024657773 0.018174404
000280 32 39 d4 3c 8d ed b8 bb 29 71 8e bd 32 d4 08 3d
       0.02590618 -0.0056435526 -0.06955177 0.03340549
000290 45 b3 38 bd 5a de 2b 3d 22 75 88 3d ce 8a 99 3c
       -0.04509284 0.041960098 0.06662966 0.018742945
0002a0 91 1c b2 3d 2d 19 c2 3d 6f 87 83 bd 9a dc c3 3c
       0.08696855 0.09477458 -0.06422316 0.023908902
0002b0 b9 1f 19 bc 00 6a 34 bc f6 28 21 bd 26 86 8b 3d
       -0.009345942 -0.0110116005 -0.039345704 0.06812696
0002c0 1e 95 4e bd 26 64 f0 bd 19 a5 06 bd 0b c4 7f bc
       -0.050435178 -0.11737852 -0.032872293 -0.015610705
0002d0 43 5c c7 39 10 de 8f 3d 46 03 df 3c b1 f3 b2 bd
       0.00038024978 0.07024777 0.02722324 -0.08737887
0002e0 c7 c0 10 3d 60 6e 04 bb c3 44 30 bd 17 31 3f bd
       0.035340097 -0.002020739 -0.043034326 -0.046677675
0002f0 c1 b7 54 3b 05 4b 2a 3d dd 90 9a bc 44 89 09 3c
       0.0032458159 0.04157545 -0.018867904 0.008394543
000300 58 b4 1d bd 01 cc 94 3d d3 05 87 3d 78 2b 78 3b
       -0.038502067 0.07265473 0.06592908 0.0037867706
000310 b8 c4 11 3d 89 08 63 bd a5 62 3c 3c e4 ec 15 3d
       0.035587996 -0.05542806 0.011498128 0.03660287
000320 10 37 4a bd 31 04 7b bc e4 35 54 bc 20 20 e1 bc
       -0.049368918 -0.0153208235 -0.012952302 -0.027481139
000330 de c6 87 bd fc f8 98 3c 29 14 a5 bc e9 da 8f 3d
       -0.06629728 0.018673413 -0.020151215 0.07024176
000340 ed cf a3 bc 72 a4 e8 bd bc 64 7a bd 70 50 bd bc
       -0.019996608 -0.113594905 -0.061131224 -0.023109645
000350 a1 58 ab 3c 4d d4 fc 3d 3e f6 c3 3d 6c d4 fe bc
       0.020916285 0.12345181 0.09568451 -0.03110715
000360 fb 91 3b 3d 80 38 8f 3d 78 4b 54 bd 5c 6a 94 bd
       0.045793515 0.069931984 -0.051829785 -0.07246849
000370 e0 c5 57 bd f4 bf 9e bb 21 37 4c 3d da 53 97 bd
       -0.052678943 -0.00484466 0.049857263 -0.0738904
000380 b6 f8 09 bb 0b 3b a1 3d e9 1d 47 bc 22 71 c8 bc
       -0.0021052784 0.0787259 -0.012153127 -0.024468008
000390 f4 4b 8d bc b4 23 73 3d 6c e3 76 3d ad f8 13 3b
       -0.017248131 0.05936022 0.06027548 0.0022578642
0003a0 15 58 9d bd 41 bc e1 3d be ec f4 bb f6 b7 04 bd
       -0.07682816 0.11022235 -0.007474511 -0.032402
0003b0 10 ab f0 3d fb ef 1e 3d fe 15 11 bd e7 64 26 bb
       0.117513776 0.038803082 -0.035421364 -0.0025389732
0003c0 6d 11 eb 3c bd db e7 bd 3a 93 dd bc 75 3f ae bc
       0.028694833 -0.113212086 -0.027047742 -0.021270493
0003d0 9e 52 24 bc be e6 56 3d fc 70 86 bd a8 b0 e9 bc
       -0.010029463 0.052466147 -0.06564519 -0.02852662
0003e0 4a 57 04 3d 24 12 7d 3d 0e e7 c9 bd eb a4 70 3b
       0.032309808 0.06178488 -0.09858523 0.0036719393
0003f0 59 a9 fe ba 70 12 86 bd 38 3f 83 bd 6f 23 db 3c
       -0.0019429132 -0.065464854 -0.064085424 0.026750294

weight f4 [100]
000000 fe 4d 7c 3f f9 28 74 3f 90 f8 76 3f e5 aa 79 3f
       0.98556507 0.9537502 0.96473026 0.9752639
000010 61 20 76 3f ce 47 79 3f 85 bb 7b 3f 18 c8 7e 3f
       0.96143156 0.9737519 0.9833301 0.9952407
000020 6a a8 76 3f 69 fe 78 3f c9 d1 82 3f 64 a9 81 3f
       0.9635073 0.972632 1.0220271 1.0129819
000030 2a fe 7a 3f df 62 76 3f 99 e1 7d 3f 3c f6 78 3f
       0.98044074 0.96244615 0.9917236 0.97250724
000040 e6 31 7c 3f 26 9e 7b 3f 3a 71 78 3f 8e 61 7b 3f
       0.9851364 0.9828819 0.9704777 0.9819573
000050 25 8b 7b 3f 4a 73 78 3f 6b d3 7a 3f 05 2d 7b 3f
       0.9825919 0.9705092 0.9797885 0.9811557
000060 88 16 75 3f 21 71 7b 3f 00 9d 76 3f da da 77 3f
       0.95737505 0.98219496 0.96333313 0.96818316
000070 5c 43 75 3f e8 88 7c 3f 60 ad 81 3f 1f d2 76 3f
       0.9580591 0.986464 1.0131035 0.9641437
000080 5d 62 7a 3f 81 d1 78 3f 46 3d 81 3f a8 35 72 3f
       0.9780634 0.9719468 1.0096824 0.9461312
000090 94 08 77 3f 70 29 74 3f b0 f1 7a 3f 5b 35 77 3f
       0.96497464 0.9537573 0.98025036 0.9656579
0000a0 73 71 79 3f 5b a7 7b 3f 15 32 78 3f b1 26 7a 3f
       0.97438735 0.9830224 0.9695142 0.9771529
0000b0 38 c7 7c 3f e2 49 7c 3f cb 41 6f 3f cb fc 79 3f
       0.98741484 0.98550236 0.9345977 0.97651356
0000c0 19 80 7e 3f be 9c 7a 3f 40 a2 83 3f 0f a9 75 3f
       0.9941421 0.9789542 1.028389 0.9596109
0000d0 cd 7c 7a 3f 49 f4 7e 3f 4f c9 78 3f e5 78 76 3f
       0.9784668 0.995915 0.9718217 0.9627822
0000e0 66 94 6f 3f 3a 62 7d 3f 8a f1 7a 3f 34 f6 7c 3f
       0.93585813 0.98978007 0.9802481 0.98813176
0000f0 dc c9 7c 3f ca 17 77 3f bb b8 78 3f 71 16 78 3f
       0.9874551 0.96520674 0.97156876 0.9690924
000100 62 1f 78 3f ff 72 7b 3f 7c 93 79 3f 94 3b 80 3f
       0.96922886 0.98222345 0.9749067 1.0018182
000110 fc d6 7b 3f 75 24 6f 3f 1d b6 80 3f ee 09 75 3f
       0.98374915 0.93415004 1.0055577 0.95718277
000120 35 65 73 3f 85 39 7c 3f 59 15 79 3f dc 2a 7b 3f
       0.95076305 0.9852527 0.972982 0.98112273
000130 30 4a 7f 3f 11 79 76 3f 76 bb 7a 3f 80 f0 75 3f
       0.99722576 0.9627848 0.9794229 0.960701
000140 69 7b 7a 3f 48 a0 79 3f d7 70 7b 3f 9c 3e 77 3f
       0.9784456 0.97510195 0.98219055 0.9657991
000150 f5 b1 82 3f ab bb 76 3f 55 23 72 3f de 8e 79 3f
       1.0210558 0.9638011 0.9458516 0.97483623
000160 b2 36 7c 3f 81 5c 71 3f ed e0 7c 3f ee cb 81 3f
       0.9852096 0.94281775 0.9878071 1.0140359
000170 50 1e 7e 3f ac d8 79 3f c8 f9 79 3f ce f8 7b 3f
       0.99265003 0.9759624 0.9764676 0.9842652
000180 7f 0a 7b 3f 50 32 79 3f 67 2f 7c 3f 00 28 7b 3f
       0.9806289 0.97342396 0.9850983 0.9810791

bias f4 [100]
000000 bf a0 12 3d 70 0f 04 3d 80 3b ef bb 7e 3f 88 bc
       0.03579783 0.032241285 -0.007300794 -0.016631838
000010 83 02 9b bc 8e f1 27 bd 7b 39 9a 3c 2b 2f 84 3c
       -0.018922096 -0.04100185 0.018826237 0.016135773
000020 1a 3e be bc 78 e2 03 bd 41 18 83 3c b4 74 40 3c
       -0.023222972 -0.0321984 0.016002776 0.011746574
000030 2b 1c da b8 cf 65 36 bc f2 d6 13 bc 99 34 bd 39
       -0.00010400297 -0.0111326715 -0.009023415 0.00036088077
000040 f0 ae c6 3b 21 e3 4e bb ff e8 06 3d f9 a3 4a ba
       0.0060633346 -0.0031568485 0.032937046 -0.00077301223
000050 e9 93 0f 3c 20 06 d4 3c 25 e5 f5 bb fe 0b 9c bc
       0.008763292 0.025881827 -0.007504123 -0.019048687
000060 ee b0 c6 3c 2e 12 1d 3c 0f d2 8f bb c3 e5 61 bc
       0.024254289 0.009586854 -0.0043890546 -0.01378769
000070 c4 fe 15 bd d0 6d 85 3b 70 b2 d9 bb 4f d1 92 bb
       -0.036619917 0.0040719286 -0.006643586 -0.004480518
000080 de 5d 32 bb 82 16 28 bb 86 ee 91 3a a1 df ff 3c
       -0.0027216594 -0.0025648181 0.0011133708 0.031234564
000090 35 e2 a4 3c 58 47 b9 3c 7a f7 60 bc 0f a4 8a bc
       0.020127395 0.022617027 -0.013730878 -0.016923932
0000a0 5f 05 17 3c 1f 73 1e bc 3d 1f 70 bc 32 f1 5b bb
       0.009217589 -0.009671002 -0.014655885 -0.0033560512
0000b0 c6 e7 0a 3d 1a 77 a0 3b 4b 4a c5 3c 55 56 75 bd
       0.033912443 0.0048970105 0.024083277 -0.059896786
0000c0 a3 29 86 3c 2f 7e 87 bc 60 08 95 bb e1 c1 5d 3b
       0.016377276 -0.016539661 -0.0045481175 0.0033837485
0000d0 72 0f 48 bc 79 e6 8e bc 87 14 27 3b c3 f2 51 3d
       -0.012210714 -0.017443882 0.0025494413 0.051256906
0000e0 cf b2 80 bc fd e3 82 3c 69 45 be 3c c6 14 41 3c
       -0.015710263 0.015977854 0.023226457 0.011784738
0000f0 66 36 12 bb 91 15 4c bd 54 32 e9 3c 75 ea 50 bc
       -0.0022310256 -0.049825255 0.028466381 -0.012751211
000100 8b 9e 27 bd 50 bb 1f 3d e1 32 4f bd 6f 4c 02 bd
       -0.040922683 0.038996994 -0.05058563 -0.031811174
000110 ae 1e e1 ba 7f fb 24 3d f5 cb 19 3a 8b bc ea bc
       -0.0017175281 0.040278908 0.0005866879 -0.028654357
000120 6c 83 a7 3c 6d 54 00 3d b1 cb 38 b9 f9 ee 25 39
       0.020448409 0.031330515 -0.00017623488 0.0001582465
000130 b5 5f 93 3b 0a cf 75 bc 17 d9 19 3b 50 df 60 bb
       0.004497493 -0.015002975 0.0023475343 -0.0034312792
000140 db 2f be 3b 64 bf 72 3c 27 2b 83 bc 1f 63 ac 3c
       0.0058040447 0.014816139 -0.016011788 0.021043358
000150 11 c8 b5 bc 57 4b 9b bc b5 ea f8 3c 60 9a 87 3b
       -0.022190126 -0.018956823 0.030385355 0.004138276
000160 8f 11 c7 bc 45 c1 6e bd e8 84 87 3c da 61 18 bc
       -0.024300365 -0.058289785 0.016542867 -0.009300673
000170 96 77 80 3a b0 bd 58 bc 76 16 a3 bc 42 6e 8d bc
       0.0009801264 -0.013228819 -0.019908171 -0.01726449
000180 a6 c7 08 bd 42 73 2b 3d 93 93 62 bc 9a 42 91 3c
       -0.033393525 0.041857965 -0.01382913 0.017731953

running_mean f4 [100]
000000 f4 e0 c8 3e 73 94 d0 3e b7 07 e5 3e 41 85 a4 3e
       0.39234126 0.40738258 0.44732448 0.32132915
000010 eb 3b ab 3e 3a 5c f5 3e c8 74 c3 3e 97 ff cf 3e
       0.3344415 0.47921926 0.38175035 0.40624687
000020 17 e9 a0 3e 8d dd ee 3e e3 10 a4 3e b0 05 f3 3e
       0.31427833 0.46653405 0.32044134 0.47465277
000030 e3 75 c3 3e db d1 ca 3e 93 f5 90 3e 44 28 b6 3e
       0.38175878 0.39613232 0.28312358 0.35577595
000040 a8 7f d9 3e 43 17 bd 3e 4c 26 bb 3e 60 17 9c 3e
       0.42480206 0.3693181 0.36552656 0.30486584
000050 99 f7 ab 3e 7d 53 99 3e 36 64 cb 3e 11 13 c6 3e
       0.3358734 0.2994651 0.39724892 0.38686422
000060 d2 96 b9 3e c0 49 c4 3e 26 5d c9 3e 10 a3 a7 3e
       0.3624788 0.38337517 0.3932888 0.32741594
000070 68 e5 c0 3e b1 31 a0 3e 1a 46 c0 3e 79 8c bc 3e
       0.37675023 0.31287912 0.37553483 0.36825922
000080 36 84 ab 3e 85 f3 bc 3e 21 77 bc 3e 58 db ea 3e
       0.33499306 0.3690454 0.36809638 0.4587047
000090 fd 0d 95 3e 3e 40 a1 3e b5 24 dd 3e 88 bb dd 3e
       0.29112235 0.31494325 0.43192068 0.43307137
0000a0 41 bf bc 3e bf 69 a4 3e 29 75 c6 3e b3 18 cf 3e
       0.36864665 0.32111928 0.3876126 0.40448532
0000b0 c1 2e ad 3e 7b 41 e7 3e 57 f2 a6 3e 62 7d 8c 3e
       0.33824733 0.45167145 0.32606766 0.2743941
0000c0 21 b2 aa 3e c5 1c d5 3e c5 62 b0 3e 6e ca c0 3e
       0.33339027 0.41623512 0.34450355 0.37654442
0000d0 37 6e b9 3e 0b 2d b7 3e eb 5e ac 3e 23 5c d4 3e
       0.362169 0.35776553 0.33666167 0.41476545
0000e0 29 6f e3 3e c4 70 ae 3e 54 c1 c1 3e d9 f8 9f 3e
       0.44420746 0.34070408 0.3784281 0.31244543
0000f0 a0 16 b4 3e b7 8e ac 3e 54 ec a0 3e 88 c8 d5 3e
       0.35173512 0.33702633 0.31430304 0.41754556
000100 87 a3 e6 3e eb ac c2 3e 93 cf a0 3e 55 2e ca 3e
       0.45046636 0.3802255 0.31408367 0.39488474
000110 8c 76 c1 3e 40 d2 f3 3e d5 6a be 3e 54 f3 fe 3e
       0.37785757 0.47621346 0.3719088 0.4979502
000120 75 2f 9e 3e 35 dc a9 3e 38 7f c9 3e 99 ff a0 3e
       0.30895582 0.33175817 0.39354873 0.31445006
000130 dc 19 a5 3e d0 c5 bf 3e 39 ac a4 3e 29 1d c0 3e
       0.32246292 0.37455606 0.32162645 0.37522247
000140 cc ba c0 3e 62 56 91 3e 70 a8 b4 3e 16 c3 a1 3e
       0.37642515 0.28386217 0.35284758 0.3159415
000150 b1 26 aa 3e 0c c1 a0 3e cc 0a c8 3e 87 82 ac 3e
       0.33232644 0.31397283 0.39070737 0.33693334
000160 3d 47 bf 3e 57 8c 24 3f ac ea bd 3e ec 40 c1 3e
       0.37359038 0.6427664 0.37093103 0.37744844
000170 30 43 d0 3e 54 60 b2 3e 44 56 8a 3e 7a 7d aa 3e
       0.4067626 0.34839118 0.2701894 0.33298856
000180 dc bf b7 3e de 30 ea 3e d3 95 d0 3e 75 5c b1 3e
       0.35888565 0.45740408 0.40739307 0.34640852
